save_modelglobal_model.pth (torch, 126327 bytes, 8 tensors)

conv.0.weight f4 [16, 3, 5, 5]
00000000: 3197 92bd 1c4e cebe be5e eebe 06d6 d9be
00000010: aa7e a2be e8f7 7f3d e2bb b2bb c80e a3be
00000020: de06 5ebd 2518 f13d 5e36 8d3e d805 f43e
00000030: f92f 273f e303 d23e 5dfd 873e a1e2 9a3d
00000040: fb3a e43e 6944 91bd 5920 a4be 5967 afbc
00000050: 9ad6 9ebe 43ef 00be 505e 61be 09fb dbbe
00000060: 6366 f6bd d176 3cbe c02c e5be af1c 07bf
00000070: 47ad 10bf b96a 47be edc8 15bd d32f 553c
00000080: 32af f3bd 724e f8bd fdb6 643e eed5 323e
00000090: 3f8f 0b3f 661a 0d3f e271 923e e6e0 9d3e
000000a0: bab4 e93d 62e3 be3e 4ecf b63d 051f eebe
000000b0: 2a63 9cbe d6d4 7abe b7d3 adbe 4b2a 8dbe
000000c0: f5f5 a8be cabe b1be 1057 9dbd f020 c0be
000000d0: 2bb1 dabe da23 0ebf 4e14 52be d8ec 7fbd
000000e0: ad85 02be 4511 98be 3e0c 79bd 7ed5 0c3e
000000f0: 7606 933e c0a5 f33e c64f 2a3f d639 943e
00000100: c6ae 7f3e d244 293e fab9 e63e 01e6 7d3d
00000110: 7c12 bfbe 8070 8cbe bea5 d0be 9e41 86be
00000120: f425 05be e48e e2be fac1 b6be 74a9 85be
00000130: fc07 9c3e be15 023f 926e 613d c0a4 d0bd
00000140: 1cfd 3c3e ea75 b13e 5915 893e 9336 a7bc
00000150: 664b 1fbe 0d4a 473e ac1a c53e f1de 85bd
00000160: c730 9bbe 1173 09be 6e71 e4bd 6fdb a3be
00000170: 0a34 89be 0b79 34be 322f 393d ec89 96be
00000180: 86e5 4ebf ed79 0ebf 82c4 8c3d d35c 3a3e
00000190: f34b 60be e0c2 9c3e 1cd4 933e ffe1 643e
000001a0: f204 5dbe 58e7 fb3d 0e57 c73e 138a a03e
000001b0: feeb 8a3c e59f 5ebe 4228 a33e 602e ee3e
000001c0: a531 003d d654 cabd 8183 61be e810 22be
000001d0: 1ebb dfbe 1345 bfbe 59bf aebd ba54 b73d
000001e0: 460f 85be f533 45bf eef1 f2be cf84 453d
000001f0: 0423 823e ae6f 73be bc77 8c3e fb2e ca3e
00000200: 2262 283e 8db3 a5ba c303 813e 694d be3e
00000210: c05d 993e 35cd f3bc bdc5 c8bd 1550 c13e
00000220: 8d71 de3e 513d 4b3b e80a eebd e238 2dbe
00000230: a103 e0bd 2207 d6be a7cd d8be be9c e1bd
00000240: 1f7e c7bc 7f67 44be 7da0 4fbf 9ab1 ffbe
00000250: a739 ae3d c600 5c3e 3aa8 1ebe db82 0cbe
00000260: 7a48 933e fa34 773e 94ff 87be a285 1cbf
00000270: 05cb b2bd 9df6 0d3f 3e59 bb3e 4d08 f0bd
00000280: bd5e dcbe fc66 20be 51cb 0c3e d8dd ed3d
00000290: 9ba7 013d 3bcb 2b3e 5a92 e7bc 8205 c03b
000002a0: 2a31 023e da93 ea3d 9dfa 21be 7e1f c1be
000002b0: 2ee5 d83d 1f0f b03e b050 ce3e 1063 63bd
000002c0: ac85 823d 9994 763e c796 733e e9e7 a4be
000002d0: 135e 23bf c1ba 87bd 9053 1d3f 5112 cd3e
000002e0: e341 39be d378 c9be 8057 1fbe 5f56 48bc
000002f0: 72f7 303e 1bc5 8bbd 97e6 803e 2c46 b8ba
00000300: 2fd3 28bd 647d 12ba 4896 7bbe 9ec6 5d3d
00000310: ec63 a8be 1bd3 043e 4daa 183d 950f 4bbe
00000320: e30d 11be 9744 513d 08f2 4d3e 67c6 ed3d
00000330: afd1 81be 5372 2cbf ea47 85bd 4f6b 333f
00000340: f80d 923e aaeb 34be dfd9 f4be 9269 eebd
00000350: 9afa 093e 5019 ff3d ab8a c2bd 4945 2e3e
00000360: c53d 45be 0dd7 253e 641b bf3d b519 28be
00000370: 0925 1bbe b975 21be 2689 babd 2e84 72bd
00000380: 6512 8ebe 470d acbe 962f 1fbf 41d0 81be
00000390: 3338 13bb 978c b73d e223 bebe a7da 45bf
000003a0: d282 26be 7d31 833e 8c7d ad3c 9072 793d
000003b0: b63b e5be 2440 4a3d 3cb7 3c3e 823d 293e
000003c0: 2b96 b13d ebc4 a7be c83e 8a3e a4db ea3e
000003d0: cca9 aa3e 60c7 c83b ffbd 75be 379b 963e
000003e0: ce3b 403e 987e 8e3e 5295 3cbe f646 29bf
000003f0: 1d0e cebe be45 83bd caac e33c 0a9c cdbe
-0.07157744 -0.40293968 -0.46556658 -0.425461 -0.31737262 0.06249228 -0.0054545263 -0.31847215
-0.054205768 0.11772183 0.2758054 0.47660708 0.65307575 0.4101859 0.26560488 0.07562757
0.4457625 -0.07093126 -0.3205593 -0.021411585 -0.31023103 -0.12591271 -0.22008634 -0.42964962
-0.120312475 -0.184047 -0.44760704 -0.5277814 -0.565144 -0.19474305 -0.03656857 0.01301189
-0.1189865 -0.12124337 0.2233543 0.1746442 0.5451545 0.55118406 0.2860251 0.30835646
0.11411424 0.37282854 0.08926259 -0.4650804 -0.30544406 -0.24495253 -0.33950588 -0.2757133
-0.3300015 -0.34715873 -0.076826215 -0.3752513 -0.42713293 -0.55523455 -0.20515558 -0.06248173
-0.12746306 -0.29700676 -0.06080269 0.13753316 0.28715867 0.47587395 0.66527975 0.28950375
0.24969015 0.16530159 0.45063764 0.061986927 -0.3731879 -0.2742958 -0.4075145 -0.26221937
-0.13002759 -0.44249642 -0.35694867 -0.26105845 0.30474842 0.50814426 0.05503709 -0.101876736
0.18455929 0.34660274 0.267741 -0.020411765 -0.15556106 0.19461842 0.38496912 -0.06536663
-0.30310652 -0.134228 -0.111544475 -0.32003352 -0.26797515 -0.17624299 0.045211025 -0.294021
-0.80818975 -0.55654794 0.068734184 0.18199472 -0.21903972 0.30617428 0.28872764 0.22351836
-0.21583918 0.12299985 0.38933605 0.31355342 0.016958233 -0.21740682 0.31866652 0.46519756
0.031297345 -0.098794624 -0.22022821 -0.15826762 -0.43697447 -0.37357387 -0.085325904 0.08951707
-0.25988215 -0.77032405 -0.47450203 0.04822236 0.2541734 -0.23773071 0.274351 0.39488968
0.16443685 -0.0012642011 0.25198182 0.37168434 0.29954338 -0.029760936 -0.098033406 0.3775641
0.43446007 0.003101189 -0.11623174 -0.1691623 -0.10938192 -0.41802317 -0.423444 -0.11016224
-0.024352131 -0.19180106 -0.8110426 -0.49940187 0.0850709 0.2148467 -0.15493861 -0.13721792
0.28766233 0.24141303 -0.26562178 -0.6114141 -0.08730129 0.55454427 0.36591524 -0.11720333
-0.4304103 -0.15664285 0.13749434 0.11614579 0.03165398 0.16776745 -0.028268028 0.0058600316
0.12714067 0.11453982 -0.15818258 -0.3771934 0.105905876 0.34386536 0.40295935 -0.055514395
0.06373152 0.24080123 0.23787986 -0.32208183 -0.6381542 -0.06627417 0.6145563 0.40053037
-0.1809154 -0.39349994 -0.15560722 -0.012227624 0.17281893 -0.06824704 0.25175926 -0.0014058999
-0.041217025 -0.00055881427 -0.24569046 0.054144494 -0.32888734 0.12971155 0.037271786 -0.19830163
-0.14165454 0.051090803 0.20111859 0.11610108 -0.25355288 -0.67361945 -0.06507857 0.70085615
0.28526282 -0.17668024 -0.47822472 -0.1164123 0.13474503 0.12456 -0.09499105 0.17018618
-0.19261844 0.16195317 0.09331396 -0.16416056 -0.15150847 -0.15767564 -0.0910819 -0.059208088
-0.2774841 -0.3360388 -0.62181985 -0.25354198 -0.0022463917 0.08962362 -0.3713675 -0.7728676
-0.16260841 0.25623694 0.02117803 0.06090027 -0.44772118 0.049377576 0.18429273 0.1652737
0.086712204 -0.32767424 0.27001023 0.45870697 0.3333267 0.006127283 -0.23998259 0.29415295
0.18772814 0.27830958 -0.18416336 -0.661239 -0.40245143 -0.06409787 0.027792353 -0.4015811

conv.0.bias f4 [16]
00000000: 2ec5 473f dc80 7a3e 8b88 bd3d ca0f 173f
00000010: e203 a4bd 8bca cebf 0ffe e7bd 9e63 05bd
00000020: ad8a f7bc a97b 03bf 1c68 83bd 47c9 98bb
00000030: 27a8 abbe eb8d 85be 06d7 28be 61b4 9fbe
0.7803525 0.24463218 0.09254559 0.5900847 -0.08008553 -1.6155561 -0.11327755 -0.032565705
-0.030217493 -0.51360565 -0.06416342 -0.004662666 -0.33526728 -0.26084837 -0.16488275 -0.31192306

conv.3.weight f4 [32, 16, 5, 5]
00000000: 0d52 4dbd 8582 99bd 2a87 133e 763a a63c
00000010: 0813 b23d d4e9 ffbc e166 c4bd cad2 06be
00000020: e073 b13c d28c 573d d835 6cbc 7cac 963d
00000030: ff23 773c 27bf 1b3d ecf8 773d 3917 353c
00000040: 9447 8ebd 5466 4bbd e46e b93d d044 003e
00000050: 2128 cdbc e4eb 8fbd 802e 803c efe6 c53d
00000060: 250d 2b3e f585 2fbe d72b a9bd 3197 473e
00000070: 423a 083e d368 dd3c e5db 79bd dffc 0abd
00000080: ed7a 9fbd 0781 813d 1866 30bd 9659 b43b
00000090: b484 dabc eb0a 9a3c 76cb 9aba f860 743d
000000a0: 6fef 12bd 122d 3abc f32e 6f3d 97db ebbd
000000b0: 9c23 013d a42f ec3c 4dde 34be 16d4 d7bd
000000c0: 696f 41be aa27 e2bc 9a6a 8dbd 689c 323e
000000d0: ec4c 4e3d 1eab c1bd ed3f 95bc 4cb9 24bd
000000e0: d78b 733d 988f 8bb8 79e0 39be 3e77 e0bd
000000f0: 9bb3 c1bd d726 45bc 4702 4ebd d4c9 ddbd
00000100: 24b2 74bc fca0 273d 5416 2abd cff4 ba3d
00000110: 5ebf 7ebd 1619 273e 36a2 113d a5d0 31be
00000120: 34e1 0c3e df39 913d d21d babd 8815 0bbd
00000130: 154a 9a3e 25f4 2e3c 7713 9dbd 7877 28be
00000140: 1e2c 74bd 1935 a03d 09b2 02be e129 1abd
00000150: d956 41bd dfed 86bd 62fd 96bd 5847 dabd
00000160: 1738 febd 3539 653d fcbd b1bd acf0 3ebe
00000170: 680f b9bd 872e f7bd 1ff5 08bd bfab 893d
00000180: 35ae 1ebe 0537 863d 176a 80bd 568d b93b
00000190: 2911 ac3d 443f 0a3e 1062 4cbe 2042 563d
000001a0: 2521 8dbc 5272 343d 35d7 363e ff3c 1bbd
000001b0: 7132 03be ded3 e8bd 1f26 d9bd 5b3b 1a3e
000001c0: fdfb 9abc 40cd 4b3d f137 10bd b729 973d
000001d0: f11f 873e f1ae cbbd 8e08 913d 8fc3 b83c
000001e0: 6b08 9abd 5823 a03c e9a7 b83d a01f 15bd
000001f0: 6a09 243e 340f 1cbe 8c5c 723b 1e1f a5bc
00000200: a647 edbd d6dc 8abd 3506 00be 0710 20be
00000210: ade0 773c ff37 33bb 6996 9dbd 6878 7f3d
00000220: 678c 99bc c6fb f0bd ba87 fc3c f397 053c
00000230: d6ca 98bb d4ca 27bc 2629 0cbe b047 8abc
00000240: 726b b53d 1432 bbbd e296 95bd 3454 8bbd
00000250: 1140 26bc 4dbe b6bc ed98 17be ec68 573d
00000260: ab47 aa3d d56f 85bb 5674 edbd fe07 3cbe
00000270: 9ca8 efbd 5c25 3f3d 8d33 28bd 1a01 25bd
00000280: 4a38 b4bd 1f74 cdbc 46be 453b e9f1 cb3c
00000290: 4b9f 5f3d 3b26 213c 2e35 a83d 816b 1ebd
000002a0: f6aa 0ebd 93ad 93bd 4156 a7bd 54a2 bcbd
000002b0: dc82 92bd cd70 d7bd 58b5 41bd 33c4 2a3d
000002c0: ae84 91bc b32c 91bd 5789 cd3c 298e 38be
000002d0: 2f6e 36bd cc55 fe3d 32a7 b83b 1714 b2bd
000002e0: 3b85 1f3e 8794 843d cd94 39bd 0c6d b9bd
000002f0: 1873 4abe ff1b 363d 6b16 1a3d ec14 6dbd
00000300: d8cc 6bbd e0e2 ff3d a728 e8bd 2874 1a3e
00000310: ce0b a1bd de86 fb3b 745c 3f3e a7af 21be
00000320: dea5 8bbd 4dbc 863d 1c3e 163e 903d 763d
00000330: 31b6 1cbe 5db9 81bb 225e 243e e830 aa3d
00000340: 9763 36be ea91 d7bd 8be0 aabd 2631 be3d
00000350: 874d 95bd 48c7 d9bd 3e23 883c ceb3 10bc
00000360: f181 223e f0c7 aebd b06a 0fbe 6627 413e
00000370: 6e40 d7bd 6bbc 2e3e 8c96 10be 1bb4 a83d
00000380: 4324 363d 95de 8b3c b494 163e 2f82 56bd
00000390: 092c a9bd 7869 15bc 6c2f 2c3d 6c69 783d
000003a0: 39a6 73bc 4fe7 6abd 14c5 69bc 3c72 74bd
000003b0: 988c ebbd 4531 f1bd e00e 6fbd ba17 9c3d
000003c0: 5a8a b93d da31 afbd 4279 c2bd 54d0 d93d
000003d0: ae39 bebb d0da 23bc 760b 0fbe a5df cbbb
000003e0: 42ca 383e 70f4 bfbd 46eb fe3d 1ac7 34bd
000003f0: 821f 393d fea0 1b3c 5573 a73d 4b11 833d
-0.050127078 -0.07495598 0.1440703 0.020291548 0.08695036 -0.031239428 -0.09589935 -0.13166347
0.021661699 0.05262453 -0.014417134 0.073571175 0.015084266 0.038024094 0.060540125 0.0110529
-0.06947246 -0.049658135 0.09054354 0.1252625 -0.025043549 -0.070274144 0.015647173 0.09663188
0.16704233 -0.17140944 -0.08260315 0.19491269 0.13303474 0.027027523 -0.061000723 -0.033932563
-0.07787118 0.06323438 -0.043066114 0.0055038435 -0.026674606 0.018804034 -0.0011809904 0.05966279
-0.035872873 -0.011363285 0.058394384 -0.11516493 0.0315281 0.02883131 -0.17662926 -0.10538499
-0.18890156 -0.027606804 -0.06905098 0.17442477 0.050366327 -0.09456466 -0.018218959 -0.040215775
0.059459534 -6.654783e-05 -0.18152036 -0.10960244 -0.09458085 -0.012033186 -0.05029514 -0.10829511
-0.01493505 0.04092501 -0.0415252 0.09128725 -0.06219422 0.16318163 0.035555087 -0.17364748
0.13757783 0.07091116 -0.09087719 -0.03395608 0.30134645 0.010678326 -0.07669728 -0.16451824
-0.059612386 0.078226276 -0.12763228 -0.037637595 -0.047201965 -0.06588339 -0.07372548 -0.10658139
-0.12413042 0.05596276 -0.08678815 -0.18646497 -0.09036142 -0.12069421 -0.03343689 0.06722211
-0.15496142 0.06553463 -0.06270235 0.0056626005 0.084017105 0.13500696 -0.19959283 0.052309155
-0.017227719 0.044054337 0.17855532 -0.037899967 -0.1281221 -0.113685355 -0.10602974 0.15061705
-0.018918986 0.04975629 -0.0352096 0.07381003 0.26391557 -0.09945477 0.0708171 0.022554187
-0.07521137 0.019548103 0.09016401 -0.036407113 0.16019216 -0.15240175 0.0036981432 -0.02015644
-0.115859315 -0.06780402 -0.12502368 -0.15631114 0.0151292505 -0.0027346609 -0.07694704 0.062370688
-0.018743707 -0.11766772 0.030826438 0.008153903 -0.004662852 -0.010241229 -0.13687572 -0.016879886
0.08858384 -0.09140411 -0.07304169 -0.0680317 -0.010147111 -0.02230754 -0.1480443 0.052590296
0.08314451 -0.0040721693 -0.11594455 -0.18362424 -0.117020816 0.046666488 -0.041064788 -0.040284254
-0.08799799 -0.025079785 0.0030173226 0.024895625 0.054595273 0.009835775 0.08213268 -0.038676742
-0.03483101 -0.07210841 -0.081707485 -0.09210649 -0.07153866 -0.10519562 -0.047292084 0.041691016
-0.017763462 -0.07088604 0.025089903 -0.1802298 -0.044538673 0.12418708 0.0056351656 -0.08695238
0.15578167 0.06473642 -0.045307923 -0.09054002 -0.19770467 0.044460293 0.037619036 -0.05788128
-0.0575684 0.12494445 -0.11335879 0.15083373 -0.0786358 0.0076759895 0.18687612 -0.15789662
-0.06818746 0.06578884 0.1467213 0.060117304 -0.15303876 -0.0039588646 0.16051534 0.083101094
-0.17811428 -0.10525878 -0.083436094 0.09286718 -0.07290178 -0.10633713 0.016618367 -0.008831931
0.15869881 -0.08534229 -0.14005542 0.18862686 -0.10510336 0.17064063 -0.14119929 0.082374774
0.044468176 0.017073909 0.14705163 -0.052370246 -0.08260352 -0.009119384 0.042037413 0.060647413
-0.014871174 -0.0573495 -0.0142681785 -0.059679255 -0.115014255 -0.117769755 -0.058363795 0.07621713
0.090595916 -0.0855443 -0.09495784 0.106354386 -0.005805216 -0.010000899 -0.13969216 -0.006221729
0.18045905 -0.09372795 0.124472186 -0.04413519 0.045196064 0.009498833 0.08176295 0.06399783

conv.3.bias f4 [32]
00000000: f9fe e4bd f2c6 a3bd db47 943e 45d3 183d
00000010: b63e 9bbd dcee f8bd a3e8 4abd 5b0e 373e
00000020: 7c07 b6bd 92ec 1cbe 8ca5 9a3e 425c 4b3e
00000030: 3f88 253e 7434 f43c 9721 d6bb 098a 1ebe
00000040: e206 3d3e 12c2 8bbd 5ce1 33be b2b8 403e
00000050: e7db 43be d6e0 5fbe 2190 003f b535 673d
00000060: 0194 f43d 90d8 0a3e 0fa9 d93d 654d 9b3e
00000070: 20ae 14be b1d3 b43e d268 99bd ca2d 98be
-0.11181445 -0.0799693 0.2896107 0.037310857 -0.075803205 -0.12154934 -0.049538266 0.1787657
-0.08888146 -0.1532462 0.30204427 0.19859412 0.16165255 0.029810168 -0.006534766 -0.15482344
0.18459657 -0.06824125 -0.17566437 0.18820456 -0.19126855 -0.21863112 0.50219923 0.056447703
0.11942292 0.13559175 0.106279485 0.30332485 -0.14519548 0.35317758 -0.07490696 -0.29722434

linear.0.weight f4 [32, 512]
00000000: a09f 803c f90a 823d 9fce 9d3c 34a9 013d
00000010: 33d0 993d 2a3f 0cbc 4d96 973c 7811 893d
00000020: 7a72 55bd 32cb 373d 454f 07bd 12b7 d43c
00000030: 1998 b0bd ef88 30bc 80eb e7bc cfa7 693e
00000040: 415c 5cbd 6565 80bd 4595 cc3c ff03 bfbd
00000050: aa8d 9abd 15ef 5b3d c539 aebc 005d 9dbc
00000060: b450 8c3d 7a86 c23d 6024 0e3b 2af4 c93d
00000070: edce a43d cc5e dd3c 6c47 953d c0a1 e8bd
00000080: 6555 8d3d c1e6 95bc 9433 51be edbd 663d
00000090: 9e7b 7bba 967b 3b3d 8ed4 e73c d96d 003e
000000a0: 622e 4bbe fb33 68be 5431 ddbd 9a06 e33c
000000b0: 981c dabb fa49 9dbe b0ea efbd 8a28 be3e
000000c0: 8c67 b9bc ef3b dfbd 4a4b 923e af77 a53d
000000d0: dc48 90bd fa13 08be bfc0 d3bd f2e5 9ebd
000000e0: ace1 f53d b36f 163c 6075 6dbd 5e1b abbd
000000f0: a932 3ebd 8875 88bd 64e2 8ebd 7fd0 3fbe
00000100: 42c9 8cbd 9d7a c9bd b317 083e 18c0 a5bd
00000110: c7fa c7bd c657 ae3c 81e5 553e f401 49bd
00000120: 15eb ae3c 94ee 893d 48c9 083e 1355 163c
00000130: a5f2 d33d 5d92 75bd d7fb 763d 0aa6 103e
00000140: 178a 8f3c ae40 e93a 8a29 0dbd 9b9e 033e
00000150: e5f5 9e3c 42fb 8abd 41c3 813c 8fb6 ef3d
00000160: 972c 80bd 16a1 87bc 72c6 06bb 22a8 38bd
00000170: 9281 03be 5865 09be aa8b ec3c 9c37 013a
00000180: 4ef6 84bd a447 20bd d1dd afbd 5f9a 38bd
00000190: e92e 353e ae83 33bc 5074 023d f572 3a3c
000001a0: 68bb 33be a697 733d decc c43c 956f adbd
000001b0: 0b89 65bd 7482 7cbe 01d0 2bbd e43d 4e3c
000001c0: d00e 2ebd 14cd e53a a1d7 d3bd 1a06 92bc
000001d0: c85a 66bc 821d 31bd e0ac adbd 930e 273e
000001e0: 6817 e13c a57e 263e 90c9 aabd c979 dc3d
000001f0: 1082 8b3c c31e 21be 5547 05be d4c3 06be
00000200: 7c93 6dbe 6af3 bebe e9bb 0a3e fdf4 ba3d
00000210: d7b1 11be a651 163d 1ef9 d63c 4236 403d
00000220: d628 cb3d a0ee 1c3d b4c6 083e 5d3e c13c
00000230: 107f 013e cb37 80be 5589 3a3d 1013 583e
00000240: 6873 46bd 9e7e 0d3e c5bc 25be c696 983d
00000250: aa80 82bd ea5d 1b3e 432e 90bd a29f ba3d
00000260: bb6b 9fbd c274 9f3d 4b4e 883d ecdd 3abe
00000270: c06c a1be 12e1 5fbd 9743 dbbc 0fa9 ba3d
00000280: c165 6abd da53 3a3d c3d4 0c3d ca18 a4bc
00000290: 3d1a a03d e313 ccbd 48d9 763c f001 86bd
000002a0: 489e d23c d61b d9bc e765 fc3c 3f04 653d
000002b0: f9d9 d1bb 0bc5 623c 6c3e 353e d80c 25bd
000002c0: 2ee9 f73c 2da1 0abe c0db 253e 9477 50bd
000002d0: 2cc7 d23d dfef 4e3d 3279 703a c691 c1bd
000002e0: 1663 5abd 0f86 ea3d 7f2f 01be 33dd b13d
000002f0: 7d41 013e 7877 90be 2333 093c 9b90 323e
00000300: 3428 10bc ec7f a03b 7902 373e a62d e1bd
00000310: 17d0 633e 4d85 9abd 8a9c 283b 0c80 c0bb
00000320: 3844 263c 7e1e 9fbd 396f 7abd fe29 e83d
00000330: ddec 3e3b 502d fe3e f33c 04be 6c71 b7be
00000340: f77d f6bc c8b2 bc3d 3f67 373c 6a6d 0fbd
00000350: d062 afbe d075 cc3d 0ba4 d8bc 0a8b 00be
00000360: 12b5 9e3d 92f5 b93d f2b5 193e d744 d53d
00000370: ca3e 89bd 7991 e43d 3dfa a6bd 247a 2abe
00000380: ff71 b4bd 2af5 c43d 41a7 463e 16a9 abbd
00000390: e673 92bd 3ac9 4b3d 0617 f2ba 7cff a63c
000003a0: b5fd b3bd 7623 0ebc 9957 883d 558c 0f3d
000003b0: f86e da3c 7070 153d faef 613c 5ca2 c0bc
000003c0: 4ffc 613e 8b7b 333d 3069 423e 1eb3 ba3b
000003d0: 792b 223e 53bc f83d a51d c03d 13ea 55bd
000003e0: 84f0 f73d 9c39 153d a48c 88bb d73a 20be
000003f0: 3ea5 bf3d d9bd 053d 887f 70bd 040a 7ebd
0.015701115 0.06349749 0.019263564 0.031655505 0.07510414 -0.008559981 0.018504286 0.06692785
-0.052111126 0.044871517 -0.03303458 0.025966201 -0.0862276 -0.010774835 -0.028310537 0.2281792
-0.053798918 -0.062693395 0.024973521 -0.09326934 -0.075465515 0.053694803 -0.021267781 -0.019209385
0.068513304 0.094983056 0.0021689162 0.09861024 0.080472805 0.027022742 0.07289013 -0.11358976
0.06901053 -0.018298509 -0.20429832 0.05633347 -0.00095933105 0.045772158 0.028299596 0.12541904
-0.19841912 -0.22676079 -0.10800424 0.027713109 -0.0066562407 -0.30720502 -0.11714685 0.37140304
-0.022632383 -0.10900103 0.28573066 0.080794685 -0.07045147 -0.1328887 -0.10339498 -0.07758702
0.12005934 0.009181905 -0.057973266 -0.08354829 -0.046435032 -0.06663042 -0.06976774 -0.18731879
-0.068743244 -0.0983784 0.1329029 -0.080932796 -0.09764629 0.021282088 0.2088833 -0.04907413
0.02135233 0.06734958 0.13358033 0.009175557 0.10349015 -0.059954036 0.060298767 0.14125839
0.017521901 0.0017795765 -0.034463443 0.12853472 0.019404361 -0.06786205 0.015840175 0.11704742
-0.06258505 -0.016556304 -0.002056506 -0.04508222 -0.12842396 -0.13417566 0.02887519 0.0004929246
-0.064922914 -0.03913082 -0.0858723 -0.045069095 0.17693676 -0.010956688 0.031849205 0.011379947
-0.17551959 0.059470795 0.02402347 -0.08468548 -0.056038897 -0.24659139 -0.041946415 0.012587998
-0.042494595 0.0017532432 -0.10343862 -0.017825175 -0.01405973 -0.04324103 -0.08480239 0.16314153
0.027476981 0.16259249 -0.08339226 0.10765416 0.017029792 -0.15734391 -0.13015492 -0.1316064
-0.23200792 -0.37295085 0.13548245 0.09128759 -0.14227997 0.03669896 0.026241835 0.046926744
0.09919898 0.038313508 0.13357049 0.023589307 0.12646127 -0.25042567 0.045541126 0.21101022
-0.048449904 0.13817832 -0.16185291 0.07450633 -0.06372197 0.15172544 -0.07040074 0.09112479
-0.0778422 0.07785942 0.06655558 -0.18248719 -0.31528282 -0.054658003 -0.026765628 0.091142766
-0.057225946 0.045490123 0.034382593 -0.020031352 0.078175046 -0.099647306 0.015066452 -0.06543338
0.02571024 -0.026502531 0.03081031 0.055912253 -0.006404158 0.013840924 0.17699593 -0.040295452
0.030262556 -0.13538046 0.16197109 -0.05089529 0.10291895 0.050521728 0.0009173333 -0.09451632
-0.053317152 0.11451351 -0.12615775 0.086847685 0.12622638 -0.28216147 0.008374008 0.17437975
-0.008798648 0.004898062 0.17872037 -0.10995035 0.22247349 -0.07544956 0.002572807 -0.0058746394
0.010148101 -0.07769488 -0.061141226 0.113361344 0.002913288 0.49643946 -0.12913875 -0.35828722
-0.030089362 0.09213787 0.011194049 -0.035016455 -0.34255075 0.099834085 -0.02644541 -0.12553039
0.0774938 0.09080042 0.15010813 0.10413521 -0.06701429 0.11160559 -0.08153198 -0.16648155
-0.088108055 0.09617074 0.1939974 -0.0838186 -0.07151012 0.04975245 -0.0018469996 0.020385496
-0.08788625 -0.008675447 0.06657333 0.03504594 0.026664242 0.036484182 0.013790125 -0.023514919
0.22068904 0.04381899 0.18985438 0.005697622 0.15836896 0.12145295 0.09380654 -0.052225184
0.121064216 0.036431894 -0.0041671563 -0.15647446 0.09357689 0.032651756 -0.058715373 -0.06202127

linear.0.bias f4 [32]
00000000: 2571 bf3d 730a 673d 132f e63d f2d5 ddbc
00000010: 3646 5b3e adb6 343d 612a 2fbd 24b1 933d
00000020: a933 e23d c3be 123f 1f2f 483e b2d0 553e
00000030: 2ad2 563e 00db 673e 9ec1 7a3d c32c 58bd
00000040: ffaf 37bd c9cf b03d f181 483e 4b4c 923e
00000050: 7d3e 0d3d eda0 f23c 9ce2 3b3e 6a0d 0abc
00000060: 4dfb ff3e e184 5d3e 8180 5e3e d0c4 7d3d
00000070: 91cc 00be 929a b83d 8f8c d2bc d0fa bfba
0.093477525 0.05640645 0.112394474 -0.027079556 0.21413502 0.044119526 -0.042765025 0.07211521
0.1104501 0.5732233 0.19549225 0.20880392 0.20978609 0.22642136 0.061219804 -0.052777063
-0.044845577 0.08633382 0.19580819 0.28573832 0.03448342 0.029617751 0.18348163 -0.00842605
0.49996415 0.2163272 0.21728708 0.061955273 -0.12578036 0.09013857 -0.02570179 -0.0014646892

linear.2.weight f4 [10, 32]
00000000: 83a1 01bf eccd f53e bd51 20bf b0ff dc3e
00000010: a035 e2be df82 033f 9138 473e 89c7 903e
00000020: 80dc 0c3d d997 fb3e 5867 c83e 313d 65bf
00000030: ab8d e5be 9ffc 0fbe 827b a13c 0d60 9d3e
00000040: 688b 363f 3ea3 ff3d a8c3 a5be a210 f63e
00000050: e0ec 73bd ed4a 4a3f 3782 503f fd81 5d3e
00000060: 1314 1d3f b002 1ebf b002 523f 4ab8 67bf
00000070: 0091 4ebd b0cb 81be 94ec 1bbf 1a87 2b3d
00000080: 8752 343e feba 1c3f bcc8 e2bc 361c 49be
00000090: 5805 503f a50e 753e d880 423e 6c31 be3e
000000a0: 76ea b5be 4b17 023e 3bbc 96bf ef2a 723e
000000b0: c667 06be 8f1c 733d 6aa6 f3be bae7 f73e
000000c0: 1ee8 303f 91ce 34bf 4b54 e8bd be53 14bf
000000d0: 3abf c0bd 5c53 60be aea7 ffbd 7e71 5ebe
000000e0: b1d8 1bbf debc 8b3e ef40 7e3e 8ee2 02bd
000000f0: c1ae 14be 02ed c13e 06ad e53e f7aa 70bd
00000100: ef64 dabe ab83 46bf 3e78 d83d 57e8 86bc
00000110: 9882 4f3f d2c6 f43e 701c 7a3e d53d 49bf
00000120: 519c 0ebf e0d3 0a3f 7f90 7b3f 3a66 7cbe
00000130: bceb 1c3f 3264 cc3d 7c66 d43e f572 cd3e
00000140: de6e 59bf 4171 b13d f80b 6a3f c012 2cbf
00000150: 87df 143e aef2 4b3e fe96 fa3e b40b 79be
00000160: 7e08 ef3e e023 d6be e4a6 b3bd 2f21 acbe
00000170: 37af 17bf 4a78 ef3d 3e8a e13d d649 bbbe
00000180: 6123 c7be 02e9 473f 188d 1f3f eee3 853e
00000190: 62df 08bf edac 823d deb7 30bb d8a7 17bf
000001a0: b017 15bf 2946 ff3e 103c 6a3e e55a 273f
000001b0: 4941 5ebf 7941 0d3f aea0 7cbf 58bc 51be
000001c0: c81f 8e3e 25f3 bc3e bf52 8bbe 89ac 7a3e
000001d0: b7da 023d d9bf 8ebe a061 24be 6e42 c7be
000001e0: a44f 0d3f 543e 623e 6e27 3abf 6ccf 213f
000001f0: 0ee9 88be 4e72 503e ff38 743d e401 99be
00000200: 472a 373e 142d 303f ab23 b6be e3a4 b53e
00000210: 9daf 2ebd adb8 763e 10d1 f73e 764f 3d3e
00000220: 3845 f0be 566a b7be 70bd 373f 8a8d 253e
00000230: 2449 2c3f d5ed f7be 0506 053f d674 163f
00000240: cafd 08bf 96ac 4e3f d011 62bd 76a6 39bf
00000250: 34a2 203e c1d7 6abe f024 59be bfc6 f6bd
00000260: 3a74 2dbf e3e3 afbd 0946 c9be 38bb 00bf
00000270: 5326 e63e 4926 b4be 5200 333f c9ce adbe
00000280: 4276 f73e 9c9d 46bd 41e2 8abe 7a55 893e
00000290: edff 943d 6e60 27bf 1e1e 69be 9417 3fbd
000002a0: a664 ef3e 5a62 92bf d02b 543e 44ff c6bc
000002b0: 6171 7b3e 2e94 aebe 6796 f53e 2a7e e9be
000002c0: a3c8 593e 4152 31bf 551a 5ebe 07f6 273e
000002d0: bc5c 81bd a0c4 ecbe 3a49 213e 8107 403f
000002e0: 5cc3 8f3e cb63 47bf d83a 3e3e b836 e83e
000002f0: 89c1 813f e702 2e3f 0060 15be 4ada 83be
00000300: 3594 543f 7a87 0dbe e46e a13e 82a3 29bf
00000310: 4d29 1f3e 5646 31bf 8b70 43bf 8bef 563d
00000320: eb89 16bf 64cd 1d3f b75d 193f 9c2d ac3e
00000330: f97d e6be 2d23 4b3f c878 0d3f ac2d c8bd
00000340: 5c77 463f b7b4 e73e a384 b3be adca 9dbe
00000350: 30f1 09be d9c0 8f3e ec9a 1dbf e625 ecbe
00000360: 5ae1 b73e eb6b 14be c0b3 6e3f 1fc7 80be
00000370: ca50 8dbe 69d4 51bf 3db2 2c3f 7faa 363f
00000380: 127b 43be 08c7 debe 7e3c df3c 093b 85bd
00000390: 1d91 3ebe e09b 6ebc f88d 0cbe 535f 2cbe
000003a0: 2141 723f 87d4 e6bd eeda 1abf 6645 72be
000003b0: ec82 613e c443 a5be 8c44 21bf 4c6e 0cbf
000003c0: 223a 793e 859c 79be 8cd0 6abd 61cd 1bbe
000003d0: f45a 12bb 6a74 363e a07a 73be 4706 093f
000003e0: a653 ccbe b2ec 2a3f 7637 45be e5ba 043f
000003f0: 8c52 f5bd 4aa9 dc3e e249 75be 9cac 353e
-0.5063707 0.48008668 -0.6262472 0.43163824 -0.44181538 0.5137157 0.19455172 0.28277233
0.034389973 0.49139288 0.39141345 -0.89546496 -0.44834647 -0.14061211 0.019712213 0.30737343
0.7130647 0.12482308 -0.32375836 0.48059565 -0.059552073 0.7902058 0.8144869 0.21631618
0.61358756 -0.6172285 0.8203535 -0.9051558 -0.05043125 -0.25350714 -0.60907865 0.04187689
0.17609607 0.6122283 -0.027683608 -0.19639668 0.81258154 0.23931368 0.18994462 0.3714708
-0.35530442 0.12704198 -1.1776193 0.2364919 -0.13125524 0.059353407 -0.475879 0.4841898
0.6910418 -0.70627695 -0.113442026 -0.5794028 -0.094114736 -0.21906799 -0.12483154 -0.21722981
-0.6087752 0.27292532 0.24829458 -0.03195434 -0.14519788 0.37876135 0.4485857 -0.058756795
-0.4265513 -0.7754466 0.105698094 -0.01646821 0.81058645 0.47807938 0.2442491 -0.78609973
-0.5570727 0.54229546 0.9826736 -0.24648371 0.612972 0.09980048 0.4148444 0.40126768
-0.84934795 0.086641796 0.9142451 -0.6721611 0.14538394 0.19916794 0.48943323 -0.2432087
0.46686167 -0.41824245 -0.08772066 -0.33619067 -0.5925173 0.11692865 0.11012696 -0.3657977
-0.3889418 0.78089917 0.62324667 0.2615046 -0.53465855 0.06380639 -0.0026965062 -0.59240484
-0.5823927 0.49858215 0.22874475 0.6537307 -0.8681837 0.5517803 -0.9868268 -0.20482004
0.27758622 0.36904255 -0.27211568 0.2447988 0.031946864 -0.27880743 -0.16052866 -0.3891787
0.55199647 0.22094089 -0.72716415 0.63207126 -0.26740307 0.20356104 0.05962467 -0.29884255
0.17887221 0.68818784 -0.35574088 0.3547736 -0.042647947 0.24093886 0.4840169 0.18487343
-0.4692781 -0.35823315 0.71773434 0.16167274 0.67299104 -0.4842364 0.5196231 0.5877203
-0.5351225 0.80732095 -0.05519277 -0.72519624 0.15686876 -0.22933866 -0.21205497 -0.120496266
-0.6775547 -0.08588388 -0.39311245 -0.50285673 0.44951114 -0.3518546 0.69922364 -0.33946827
0.4833241 -0.04849015 -0.27125743 0.26823026 0.072753765 -0.65381515 -0.22765395 -0.046653345
0.46756476 -1.1436265 0.20719838 -0.024291642 0.2455497 -0.34097427 0.4796631 -0.45604068
0.21267943 -0.69266135 -0.21689732 0.16402446 -0.06316516 -0.46243763 0.1575059 0.7501145
0.28078735 -0.77886647 0.18577135 0.45354247 1.0137187 0.6797318 -0.14587402 -0.2575248
0.83038646 -0.13821211 0.31529915 -0.6626512 0.15543099 -0.6924795 -0.763436 0.05247454
-0.58804196 0.61641526 0.5990862 0.33628547 -0.45017985 0.7935055 0.5526242 -0.09774336
0.7752588 0.45255062 -0.3506213 -0.30818692 -0.13470912 0.2807682 -0.6156452 -0.46122664
0.35914117 -0.14494292 0.93243027 -0.25151917 -0.276007 -0.8196474 0.6745947 0.71353906
-0.19089916 -0.43511224 0.027250525 -0.06505401 -0.18610044 -0.014563531 -0.13726032 -0.16833238
0.9463063 -0.11271005 -0.6049031 -0.23659286 0.22022599 -0.32278264 -0.6299522 -0.548558
0.24338582 -0.24376114 -0.057327792 -0.15215065 -0.0022332044 0.17817846 -0.23777246 0.53525203
-0.3990757 0.6676742 -0.19259438 0.5184768 -0.11978635 0.43097907 -0.23953965 0.17741627

linear.2.bias f4 [10]
00000000: 1a34 4ebe b37a 1dbe 82a8 b93e f175 333e
00000010: 52a5 12bf eabd f8bd cf5d 1a3f 3ce7 3dbd
00000020: aba6 803c 74df 4ebe
-0.20137063 -0.15378837 0.36261374 0.1752546 -0.5728351 -0.12145598 0.6029939 -0.0463631
0.015704473 -0.20202428
