save_modelglobal_model.pth (torch, 75479 bytes, 6 tensors)

conv.0.weight f4 [16, 1, 5, 5]
0.13959803 -0.14574262 -0.15701865 -0.08672823 -0.37357676 0.0728222 0.11152282 -0.25305516
-0.09119955 -0.2305216 0.22354169 0.20831585 0.28176427 0.22479212 0.12048251 -0.17730395
0.30225337 -0.004292653 0.32037336 0.27956507 -0.08649715 0.12709507 -0.082645126 -0.09346798
0.17901075 -0.048459 -0.1843261 -0.15949291 -0.10364376 0.09048663 -0.118272536 0.13214484
0.21606898 0.017027928 0.21336478 0.060382925 0.2099234 0.046940375 -0.07099872 0.2180447
-0.14412877 0.016225535 0.09395213 -0.17304312 -0.2150642 0.057569206 -0.2747728 -0.20043619
0.021012163 -0.12795398 0.15583521 -0.071888015 -0.04051694 -0.15866804 0.046054266 -0.18920423
-0.20543244 -0.21939166 0.04807932 0.039856315 0.2692613 0.07692449 0.23331764 -0.06534486
0.06713616 0.011019048 0.2980126 0.17009301 0.014913653 -0.17927124 -0.24802916 -0.09218884
0.15292563 -0.091817975 -0.0828263 -0.12582947 0.21250539 0.2184237 -0.062318612 0.033522576
-0.029303867 -0.008763056 -0.15551579 -0.13361156 -0.08453581 -0.18476313 -0.055896763 -0.17175847
-0.19473268 -0.080458835 -0.122655675 0.0040737092 0.07249836 -0.16843723 -0.10782208 -0.08723247
-0.24203815 -0.23786837 0.186149 0.10821173 -0.10187086 0.2000477 -0.20261362 0.08348412
-0.30447125 -0.13884614 0.16157675 0.023565285 -0.12450916 -0.2884968 -0.001410207 0.18781231
0.16526473 0.18749768 -0.30144522 -0.2309312 -0.16195762 -0.017646892 0.37366298 0.2682181
-0.023830133 -0.19178292 -0.12773514 0.30301115 0.33597478 -0.074209556 0.25970155 0.22919029
0.3020734 0.39090493 0.27018273 0.3019941 0.18521255 0.040781513 0.24189681 0.18277007
0.12417261 0.05397297 0.123228766 -0.058769565 -0.31731662 -0.281526 -0.28904554 -0.26122877
-0.33092016 -0.10421134 -0.39448297 -0.29350588 -0.18062213 -0.1361078 -0.09815834 -0.22393137
0.037376624 0.20553046 0.12055771 -0.10731658 -0.12363834 -0.25365195 0.078332715 0.23957351
-0.17636985 -0.26188463 -0.0570269 0.009050637 0.29311094 -0.1583454 -0.059548225 -0.18975852
-0.06767723 0.4834025 -0.31107557 -0.30700672 0.09360127 0.041782502 0.46389455 0.03985301
0.14728929 -0.028307213 0.08440956 -0.15756086 -0.06794971 0.02614395 -0.13939798 -0.04138865
-0.15391411 0.119180895 -0.067300454 -0.27380076 -0.09432457 -0.24864648 0.28419513 0.30007863
-0.15582696 -0.17835893 -0.28234318 0.2321764 0.13602068 0.39118642 0.4222978 0.14449294
-0.07554089 0.1847569 0.056826796 0.012567469 0.011548707 -0.21259421 0.022683665 0.19395907
-0.04833417 -0.06464163 -0.16696319 -0.015415928 0.1747181 0.008614693 -0.2111389 -0.0025340014
-0.12938659 0.23842451 0.07777642 -0.052606914 -0.17844713 0.22789818 -0.10081142 0.03548455
-0.18350998 -0.2334942 -0.018752476 0.10110908 0.14758664 0.26626348 -0.10845157 -0.20307277
0.040800713 0.14271925 0.14540534 -0.16324805 -0.24670446 0.008213711 0.40363994 0.19341409
0.027540704 0.022094635 0.27346945 0.18927948 0.03515451 -0.056057304 -0.050101437 0.19566749
-0.06252643 -0.047892194 0.021406384 -0.09200683 -0.24258922 -0.21832915 -0.1383189 -0.12752458
00000000: c9f2 0e3e 8e3d 15be 7fc9 20be 929e b1bd
00000010: 7445 bfbe ce23 953d 1466 e43d 7290 81be
00000020: d4c6 babd db0d 6cbe 1de8 643e c050 553e
00000030: 6843 903e e82f 663e 89bf f63d 2b8f 35be
00000040: f4c0 9a3e 62a9 8cbb fa07 a43e 2723 8f3e
00000050: 6b25 b1bd 3625 023e d941 a9bd 246c bfbd
00000060: 984e 373e f27c 46bd fbbf 3cbe 1c52 23be
00000070: 2e43 d4bd 0e51 b93d df38 f2bd fa50 073e
00000080: 3041 5d3e 277e 8b3c 4c7c 5a3e 1654 773d
00000090: 29f6 563e 8d44 403d c767 91bd 1c47 5f3e
000000a0: 7e96 13be 6aeb 843c f969 c03d 3732 31be
000000b0: ca39 5cbe b0cd 6b3d 05af 8cbe 253f 4dbe
000000c0: b321 ac3c 5e06 03be 4493 1f3e 063a 93bd
000000d0: 17f5 25bd e079 22be 66a3 3c3d c1be 41be
000000e0: e25c 52be 35a8 60be d2ee 443d 6040 233d
000000f0: 9edc 893e 968a 9d3d d2ea 6e3e 87d3 85bd
00000100: af7e 893d 3d89 343c 1c95 983e dd2c 2e3e
00000110: 6558 743c e192 37be 5bfb 7dbe 81cd bcbd
00000120: 8998 1c3e 100b bcbd d6a0 a9bd 71d9 00be
00000130: 039b 593e 76aa 5f3e cd41 7fbd f84e 093d
00000140: aa0e f0bc ec92 0fbc 883f 1fbe 78d1 08be
00000150: 1c21 adbd 8c32 3dbe 01f4 64bd 74e1 2fbe
00000160: 0168 47be 9ac7 a4bd e632 fbbd c07c 853b
00000170: 057a 943d cf7a 2cbe d3d1 dcbd f0a6 b2bd
00000180: d9d8 77be c493 73be d89d 3e3e 1d9e dd3d
00000190: aba1 d0bd 4ed9 4c3e f279 4fbe b9f9 aa3d
000001a0: a8e3 9bbe af2d 0ebe 6074 253e fc0b c13c
000001b0: a9fe febd dab5 93be b2d6 b8ba df51 403e
000001c0: 283b 293e 64ff 3f3e 0757 9abe 3a79 6cbe
000001d0: 38d8 25be 3790 90bc c150 bf3e e253 893e
000001e0: 6937 c3bc be62 44be 00cd 02be 4724 9b3e
000001f0: e304 ac3e 2efb 97bd 9af7 843e dcb0 6a3e
00000200: 5da9 9a3e b124 c83e 6455 8a3e f89e 9a3e
00000210: 5ca8 3d3e 840a 273d ccb3 773e 1428 3b3e
00000220: 364e fe3d c312 5d3d 5d5f fc3d 5bb8 70bd
00000230: 5377 a2be 2d24 90be c7fd 93be c7bf 85be
00000240: 5e6e a9be c16c d5bd acf9 c9be 6746 96be
00000250: 02f5 38be d85f 0bbe 3d07 c9bd 444e 65be
00000260: 3b18 193d 9476 523e f6e6 f63d ccc8 dbbd
00000270: 1936 fdbd abde 81be e76c a03d c252 753e
00000280: 4c9a 34be be15 86be 0a95 69bd 1f49 143c
00000290: a312 963e 4c25 22be d7e8 73bd 0f50 42be
000002a0: 5c9a 8abd 8880 f73e 4c45 9fbe fc2f 9dbe
000002b0: 06b2 bf3d 2124 2b3d 9683 ed3e e93c 233d
000002c0: 01d3 163e 87e4 e7bc ebde ac3d a257 21be
000002d0: 3829 8bbd d62b d63c 58be 0ebe 2587 29bd
000002e0: a99b 1dbe 1d15 f43d d2d4 89bd 9d2f 8cbe
000002f0: 3d2d c1bd 2f9d 7ebe 0682 913e e8a3 993e
00000300: 1a91 1fbe b9a3 36be 498f 90be a6bf 6d3e
00000310: 0149 0b3e 9649 c83e 6b37 d83e f5f5 133e
00000320: 2fb5 9abd ea30 3d3e 37c3 683d c9e7 4d3c
00000330: ca36 3d3c 4cb2 59be 18d3 b93c 359d 463e
00000340: 0dfa 45bd d562 84bd 66f8 2abe 1793 7cbc
00000350: 4de9 323e a424 0d3c cc34 58be 7d11 26bb
00000360: eb7d 04be 8e25 743e 3e49 9f3d 597a 57bd
00000370: d8ba 36be 245e 693e 3876 cebd 3f58 113d
00000380: 0aea 3bbe 1b19 6fbe cb9e 99bc 4712 cf3d
00000390: f420 173e b053 883e db1b debd 4ff2 4fbe
000003a0: a61e 273d ff24 123e 23e5 143e 7f2a 27be
000003b0: 18a0 7cbe cd92 063c e5a9 ce3e 580e 463e
000003c0: 0b9d e13c cfff b43c 3004 8c3e 7bd2 413e
000003d0: 2dfe 0f3d 589c 65bd 2a37 4dbd 0f5d 483e
000003e0: db0d 80bd 9b2a 44bd 715c af3c 146e bcbd
000003f0: 4f69 78be ad91 5fbe 78a3 0dbe ce95 02be

conv.0.bias f4 [16]
0.024134489 0.10397544 -0.02288329 0.061627638 0.02408072 0.05658696 0.15217914 0.046379503
-0.08762319 -0.13702588 0.102733746 -0.084263586 0.22241041 -0.072890684 -0.08534542 -0.2158052
00000000: b1b5 c53c 13f1 d43d bd75 bbbc 436d 7c3d
00000010: ee44 c53c bac7 673d d9d4 1b3e 6ff8 3d3d
00000020: c973 b3bd 8350 0cbe 1266 d23d 6392 acbd
00000030: 8ebf 633e b647 95bd 94c9 aebd 0afc 5cbe

conv.3.weight f4 [32, 16, 5, 5]
0.010387872 -0.011881526 0.009577287 -0.048583366 -0.031455725 0.058133185 0.030776918 0.023872469
-0.027807403 -0.030074444 -0.034155898 0.034106836 0.010238517 0.003678624 0.007579447 -0.016378619
0.0032498925 -0.03743914 -0.017515851 -0.013971865 -0.08825198 -0.042737648 0.00081502635 -0.062793806
0.19169998 -0.018316753 -0.0111968685 0.014558273 0.04289419 0.04622663 -0.0053606085 0.0033626866
-0.04572121 -0.049364865 0.031331412 -0.028546056 0.0043783826 -0.003846865 -0.0068554925 0.02941736
0.049791623 -0.0013971981 0.034078486 -0.0003783552 0.01888978 -0.040666327 -0.03008375 -0.04470995
0.05647323 -0.09193638 0.009297021 -0.00599266 -0.01029839 -0.011585737 0.035505243 -0.022276215
-0.025650311 -0.013022683 0.016842311 0.03507195 0.018646672 0.007180709 -0.0387173 0.049511306
0.03885857 0.036239386 -0.02530579 0.03716298 -0.02252604 -0.025449935 -0.033688404 0.016591605
0.0211767 0.01989103 -0.022812944 0.04819587 0.010169239 0.015046116 0.0108762495 -0.009981486
-0.05049586 -0.046131626 0.011408326 0.0051996596 0.01122671 -0.010868277 0.018533403 0.00448082
0.022480194 0.029314268 0.0024950467 -0.0058094626 -0.041432753 -0.022470947 -0.0011660494 -0.041927487
0.012202102 -0.030466963 -0.03932149 0.1455227 0.031368073 0.032111056 0.039339762 -0.0018166328
0.007460649 0.042589102 -0.0035992297 -0.04598426 0.042244393 0.020562047 -0.013198835 -0.019761363
0.021139912 0.02438953 -0.011237072 0.035008445 0.042215593 -0.011984159 -0.042774457 -0.028376099
0.035439212 -0.044418663 -0.00021249254 -0.029114597 0.58778155 0.09773578 0.058279134 -0.0037758485
-0.040805366 -0.025831714 0.044831973 -0.020963807 -0.059510984 -0.05208934 -0.07007795 0.011101676
-0.030936595 -0.032637183 -0.04813252 0.00013587621 -0.001960229 -0.027424775 0.021973973 -0.055518292
0.025084067 -0.010289534 -0.038238227 0.0127692 -0.061060082 -0.061903734 -0.025108134 -0.05325018
0.01550955 -0.008648804 -0.085346304 0.0119952755 -0.041018277 -0.03852751 -0.002590232 -0.060969815
-0.016723298 0.028717 -0.029631358 0.020123519 -0.013495969 0.0020591018 -0.019074561 -0.014057262
-0.056001365 -0.062087797 0.017753819 0.0130799785 0.013209648 -0.11864034 0.3507311 0.01336811
-0.018007347 0.009651814 -0.020876484 -0.0026394313 0.039142653 0.014860303 -0.0029165451 -0.017985797
-0.022485051 -0.043155782 0.020701809 -0.05592512 0.012683761 -0.071039155 -0.06061867 -0.025898783
-0.072434366 -0.1051241 -0.0358211 -0.025752408 -0.07809913 -0.044254027 0.014077084 0.30570453
-0.0020030418 0.0033298354 -0.018102238 0.0004398834 -0.04753133 -0.03051829 0.020131879 0.046615034
-0.008677501 -0.04755949 0.016964678 -0.017241836 -0.04367563 0.016114827 -0.024082052 0.031079225
-0.01508392 -0.0071542826 0.04078424 -0.023386963 0.020741459 0.03828507 0.0037141433 -0.0134323025
0.008388773 -0.01736833 -0.007359333 -0.03717347 -0.007546624 -0.014797403 -0.0028309962 0.005314392
0.02198274 -0.003414583 -0.10661927 0.036170203 0.057706077 0.0045589255 -0.055224653 -0.00012860738
0.031134201 0.02736136 -0.06142734 0.0025534946 -0.017091379 0.018413812 0.011292059 -0.014484117
0.00974779 -0.10383781 0.023465471 0.00919055 -0.01581517 -0.007987172 -0.0770344 0.013888961
00000000: e531 2a3c bbaa 42bc 0eea 1c3c 5aff 46bd
00000010: b8d7 00bd 101d 6e3d e01f fc3c 3290 c33c
00000020: 5acc e3bc ae5e f6bc 0ee7 0bbd 9cb3 0b3d
00000030: 74bf 273c 1215 713b 025d f83b 742c 86bc
00000040: 26fc 543b c959 19bd 677d 8fbc 40ea 64bc
00000050: 74bd b4bd ac0d 2fbd 7ea7 553a 0a9a 80bd
00000060: 004d 443e 040d 96bc 1273 37bc d385 6e3c
00000070: d1b1 2f3d 2358 3d3d 0ba8 afbb 8560 5c3b
00000080: 2a46 3bbd d032 4abd 5e55 003d 6bd9 e9bc
00000090: 8978 8f3b af1b 7cbb 0aa4 e0bb adfc f03c
000000a0: 4df2 4b3d 3022 b7ba e295 0b3d fa5d c6b9
000000b0: bdbe 9a3c bc91 26bd 3272 f6bc c821 37bd
000000c0: 7950 673d 2449 bcbd 8852 183c 135e c4bb
000000d0: 94ba 28bc 1ad2 3dbc f26d 113d 9c7c b6bc
000000e0: 9a20 d2bc 175d 55bc e3f8 893c 9ba7 0f3d
000000f0: e8c0 983c 274c eb3b 0896 1ebd 5ecc 4a3d
00000100: 2a2a 1f3d c06f 143d 174e cfbc 3538 183d
00000110: 8888 b8bc 627c d0bc dafc 09bd 1eeb 873c
00000120: c27a ad3c 83f2 a23c 36e2 babc 0869 453d
00000130: e19c 263c fc83 763c 4c32 323c 6389 23bc
00000140: bfd4 4ebd 84f4 3cbd fde9 3a3c e861 aa3b
00000150: 3cf0 373c dc10 32bc 5dd3 973c d8d3 923b
00000160: 6228 b83c 7a24 f03c f083 233b 4e5d bebb
00000170: 64b5 29bd fe14 b8bc 20d6 98ba 28bc 2bbd
00000180: 53eb 473c da95 f9bc 920f 21bd e703 153e
00000190: cf7b 003d e286 033d bb22 213d 151c eeba
000001a0: 7678 f43b e971 2e3d 0ee1 6bbb fe59 3cbd
000001b0: 7508 2d3d bd71 a83c ed3f 58bc 95e2 a1bc
000001c0: 9c2d ad3c 8dcc c73c b21b 38bc 0465 0f3d
000001d0: 42ea 2c3d 3559 44bc 4534 2fbd fe74 e8bc
000001e0: b528 113d 58f0 35bd 88d0 5eb9 bc81 eebc
000001f0: da78 163f b229 c83d 1ab6 6e3d 3a74 77bb
00000200: 8723 27bd 089d d3bc bba1 373d 4abc abbc
00000210: cac1 73bd a25b 55bd 0785 8fbd cee3 353c
00000220: be6e fdbc 91ae 05bd 9b26 45bd fe79 0e39
00000230: 2f77 00bb eca9 e0bc c302 b43c 2667 63bd
00000240: 1a7d cd3c 6f95 28bc b09f 1cbd e835 513c
00000250: 231a 7abd c58e 7dbd 93af cdbc dc1c 5abd
00000260: c51b 7e3c b7b3 0dbc 0bca aebd d587 443c
00000270: c802 28bd 06cf 1dbd e2c0 29bb 7cbb 79bd
00000280: 4cff 88bc ea3f eb3c 76bd f2bc 14da a43c
00000290: 321e 5dbc fff1 063b 4142 9cbc 6e50 66bc
000002a0: b061 65bd c64f 7ebd 7570 913c 684d 563c
000002b0: 486d 583c b5f9 f2bd 0793 b33e eb05 5b3c
000002c0: 2584 93bc a422 1e3c 2905 abbc 4ffa 2cbb
000002d0: 0c54 203d a178 733c 8223 3fbb f356 93bc
000002e0: 9232 b8bc 1ec4 30bd d796 a93c bd11 65bd
000002f0: 8dcf 4f3c fa7c 91bd 484b 78bd af29 d4bc
00000300: 7858 94bd 4e4b d7bd 25b9 12bd b7f6 d2bc
00000310: 70f2 9fbd b643 35bd 92a3 663c 4e85 9c3e
00000320: 7745 03bb 5e39 5a3b 254b 94bc 27a0 e639
00000330: 36b0 42bd 7e01 fabc 9ceb a43c 68ef 3e3d
00000340: 142c 0ebc bdcd 42bd 82f9 8a3c c03e 8dbc
00000350: 38e5 32bd 3e03 843c b947 c5bc dc99 fe3c
00000360: 8c22 77bc 796e eabb 600d 273d 0496 bfbc
00000370: fee9 a93c ced0 1c3d fc68 733b 2913 5cbc
00000380: 1071 093c 0748 8ebc 8f26 f1bb 3543 18bd
00000390: ac49 f7bb ce70 72bc 3c88 39bb 5a24 ae3b
000003a0: 2615 b43c 32c7 5fbb 345b dabd 3527 143d
000003b0: 355d 6c3d 0a63 953b 3f33 62bd c8da 06b9
000003c0: 270d ff3c ee24 e03c 3c9b 7bbd 8858 273b
000003d0: 3803 8cbc 90d8 963c 5402 393c ca4e 6dbc
000003e0: 32b5 1f3c eba8 d4bd a93a c03c f693 163c
000003f0: d18e 81bc a1dc 02bc 36c4 9dbd 868e 633c

conv.3.bias f4 [32]
0.0146059925 -0.01783656 -0.029197223 0.006187932 -0.04607221 -0.0050147306 -0.044377916 -0.013241082
0.0049057677 -0.03582872 0.0042675897 -0.017523803 0.011501177 -0.008750148 0.031576987 0.044169314
-0.025535725 -0.0005862331 -0.053303864 0.008043614 -0.008938918 0.025268003 -0.016040802 -0.05135688
0.0072925272 0.0014719225 -0.029244663 0.03258895 -0.0032993846 -0.05957188 0.011948417 -0.01695336
00000000: f94d 6f3c fa1d 92bc 042f efbc 23c4 ca3b
00000010: 37b6 3cbd 9c52 a4bb 9ec5 35bd 20f1 58bc
00000020: 90c0 a03b 23c1 12bd 23d7 8b3b 148e 8fbc
00000030: 6f6f 3c3c c85c 0fbc df56 013d e2ea 343d
00000040: 4c30 d1bc 70ad 19ba 2755 5abd 5dc9 033c
00000050: 8a74 12bc d8fe ce3c 0068 83bc 985b 52bd
00000060: 27f6 ee3b 86ed c03a 8192 efbc fe7b 053d
00000070: 7d3a 58bb a501 74bd 4bc3 433c c6e1 8abc

linear.0.weight f4 [10, 512]
0.028962215 -0.036324255 0.032762393 0.06932743 0.04537667 -0.06963046 -0.022362923 0.023326539
0.06312582 0.047512405 -0.028972084 -0.013212745 0.054301232 0.040734023 0.0105640935 -0.16795775
-0.0646402 -0.016882202 0.06936014 0.004113903 -0.0695444 0.015745293 0.0019952923 0.015034113
-0.026227051 -0.086099505 -0.11461873 0.031916987 0.0020559335 0.011644071 0.0321478 0.06436151
0.026479576 0.005953807 0.029432837 0.09382435 0.034423508 -0.0032439083 -0.037016995 0.057444543
0.006347119 -0.037284885 -0.053707752 0.017960694 -0.01158159 -0.023795828 -0.07587715 -0.037675634
-0.013253734 -0.06390087 -0.009805522 -0.039874304 -0.0504235 -0.047014385 0.017244224 -0.03778796
0.037112605 0.0322975 -0.018769857 -0.034443323 0.02432719 -0.010713663 0.09372696 0.03886639
-0.033641487 -0.010001173 -0.029228428 0.035220724 -0.034926478 0.0068190014 -0.009053438 0.037650768
0.011360604 -0.03981261 -0.0011580968 0.050883908 -0.0532293 0.009283028 0.0069097164 0.031086309
0.01208884 0.04798827 0.027390486 0.011647142 -0.017907562 -0.103604935 0.027873347 0.12863703
-0.06886459 -0.015922945 -0.06915469 0.06596342 0.018520974 -0.034012288 -0.09227292 0.043258727
0.066704035 -0.019228011 0.047941096 -0.011142304 0.12019601 0.059300307 -0.0021021434 -0.061371263
0.07335769 0.05612353 -0.028106473 -0.0001235716 -0.042182546 -0.029071838 0.002347979 0.032028902
0.06006495 0.04160047 0.054893725 0.007180958 0.023438664 -0.056799483 -0.037754744 0.003784486
-0.10183774 0.006656623 -0.009535866 0.030961692 -0.082127 0.08115729 0.0395179 0.030668616
-0.0012553779 -0.008329649 -0.075150274 -0.03693843 0.09734611 -0.012180709 -0.06080457 -0.046168692
0.090211526 0.07835598 -0.15219925 0.020361021 0.13446167 0.06389523 -0.10703935 0.016403006
0.01053067 0.036194928 -0.034976725 -0.0067614075 -0.008145351 -0.023462404 -0.051215053 0.057702363
-0.0358225 0.028980983 0.0330784 -0.0021155677 -0.022392487 -0.005345187 -0.060841445 -0.020837856
0.03264723 0.039866246 0.005150991 0.009517347 -0.00358783 -0.016199859 -0.009345145 -0.061247982
-0.061477646 -0.059447892 -0.0162636 -0.033972397 -0.05546166 -0.035247784 -0.0027414206 0.05476947
0.062080048 0.032014374 -0.03108281 -0.05680063 0.06076254 0.0009852088 -0.053080454 0.010011236
0.09720267 -0.08497766 -0.021607123 0.08635339 0.032236982 -0.04440229 0.030555148 0.019434884
0.015117744 0.022681978 -0.01675715 0.05749424 -0.061253663 0.048441306 0.01770437 0.03628304
-0.062808424 -0.09339109 -0.15950717 -0.01685588 0.008270424 0.056176722 -0.060392383 0.007722553
-0.0058638076 -0.003222227 -0.05270182 -0.06721609 0.012189199 0.0071694767 0.015150696 -0.08528471
-0.06109844 -0.06352796 -0.006652331 0.0120971855 -0.09126085 -0.028401691 0.06584697 0.08817481
0.023309011 0.01612407 0.09035397 0.13207597 -0.039437585 -0.076163284 0.024597473 0.047661647
0.046516627 -0.050830286 -0.052840825 0.04151488 0.08956808 -0.020534066 -0.1484602 -0.03484657
0.08932567 0.08131894 0.008391691 -0.064323135 0.0006801356 -0.09449744 -0.022476941 0.02996182
-0.030698229 0.02632303 0.029776815 0.03725476 -0.0010230289 0.0034212621 -0.025600787 0.043332364
00000000: 2b42 ed3c bec8 14bd dc31 063d 8afb 8d3d
00000010: e3dc 393d 6a9a 8ebd 7332 b7bc 4c17 bf3c
00000020: 1c48 813d 5e9c 423d dd56 edbc 457a 58bc
00000030: f86a 5e3d b8d8 263d 0515 2d3c 1efd 2bbe
00000040: 1562 84bd 8b4c 8abc b00c 8e3d ebcd 863b
00000050: 4b6d 8ebd 46fc 803c 73c3 023b a451 763c
00000060: 1dda d6bc f054 b0bd 3abd eabd 63bb 023d
00000070: d7bc 063b c6c6 3e3c 69ad 033d f8cf 833d
00000080: b2eb d83c 2718 c33b 221d f13c fb26 c03d
00000090: aaff 0c3d c097 54bb 229f 17bd f84a 6b3d
000000a0: 7efb cf3b 09b8 18bd a9fc 5bbd 4e22 933c
000000b0: b6c0 3dbc 78ef c2bc 7b65 9bbd c451 1abd
000000c0: 3126 59bc 76de 82bd 57a7 20bc 3d53 23bd
000000d0: df88 4ebd 2892 40bd c243 8d3c 8cc7 1abd
000000e0: 6303 183d 624a 043d 3ec3 99bc 7114 0dbd
000000f0: d149 c73c 5c88 2fbc ecf3 bf3d 5d32 1f3d
00000100: a8cb 09bd f6db 23bc 7570 efbc 9b43 103d
00000110: 110f 0fbd ee71 df3b df54 14bc b137 1a3d
00000120: d421 3a3c 8c12 23bd 48cb 97ba a56b 503d
00000130: f706 5abd d717 183c e76a e23b b7a8 fe3c
00000140: 4510 463c 598f 443d 0362 e03c a7d3 3e3c
00000150: e1b2 92bc d32e d4bd a556 e43c 6db9 033e
00000160: e108 8dbd d670 82bc f9a0 8dbd d417 873d
00000170: 4cb9 973c 7850 0bbd 96f9 bcbd 1030 313d
00000180: 209c 883d 1084 9dbc e25d 443d 368e 36bc
00000190: 5329 f63d e1e4 723d 1dc4 09bb 6f60 7bbd
000001a0: 8e3c 963d c9e1 653d 8c3f e6bc 0093 01b9
000001b0: 9bc7 2cbd 1028 eebc 8de0 193b bd30 033d
000001c0: aa06 763d 4165 2a3d 3ed8 603d 3e4e eb3b
000001d0: 7102 c03c 93a6 68bd b8a4 1abd 2405 783b
000001e0: 4e90 d0bd cd1f da3b 523c 1cbc 60a3 fd3c
000001f0: 3332 a8bd cb35 a63d 86dd 213d c03c fb3c
00000200: 7e8b a4ba 1579 08bc 63e8 99bd c04c 17bd
00000210: 665d c73d 9991 47bc 360e 79bd 621b 3dbd
00000220: d2c0 b83d 1a79 a03d 1fda 1bbe 28cc a63c
00000230: 52b0 093e 81db 823d 7237 dbbd 995f 863c
00000240: d588 2c3c 2241 143d c143 0fbd cc8e ddbb
00000250: 1474 05bc 3a34 c0bc e0c6 51bd 5059 6c3d
00000260: 9dba 12bd 8769 ed3c 377d 073d 56a5 0abb
00000270: 7370 b7bc ae26 afbb e134 79bd 27b4 aabc
00000280: 1ab9 053d ca4a 233d a5c9 a83b a6ee 1b3c
00000290: cd21 6bbb 91b5 84bc 611c 19bc 2adf 7abd
000002a0: fccf 7bbd a27f 73bd 3e3b 85bc a426 0bbd
000002b0: c42b 63bd fb5f 10bd 68a9 33bb f455 603d
000002c0: a647 7e3d 8121 033d 61a1 febc c7a7 68bd
000002d0: 24e2 783d 1f22 813a e46a 59bd 2b06 243c
000002e0: 3212 c73d c408 aebd 6c01 b1bc 0cda b03d
000002f0: ed0a 043d 2ddf 35bd ca4e fa3c e835 9f3c
00000300: 6ab0 773c 8ecf b93c 4a46 89bc 157f 6b3d
00000310: 1fe5 7abd 646a 463d c108 913c 869d 143d
00000320: b4a1 80bd d443 bfbd d955 23be 5815 8abc
00000330: ac80 073c 9019 663d 015e 77bd 780d fd3b
00000340: 2f25 c0bb 002c 53bb dddd 57bd 97a8 89bd
00000350: 35b5 473c eeed ea3b a03a 783c c0a9 aebd
00000360: 5c42 7abd f21a 82bd ccfb d9bb 4633 463c
00000370: f8e6 babd aaaa e8bc c7da 863d ff94 b43d
00000380: 8af2 be3c a016 843c 810b b93d ec3e 073e
00000390: 4e89 21bd 7ffb 9bbd a480 c93c dc38 433d
000003a0: 3888 3e3d 6b33 50bd 9f6f 58bd 820b 2a3d
000003b0: 786f b73d 0f37 a8bc f305 18be 47bb 0ebd
000003c0: 60f0 b63d 8b8a a63d 4e7d 093c d9bb 83bd
000003d0: 214b 323a e087 c1bd 9021 b8bc 7e72 f53c
000003e0: da7a fbbc 65a3 d73c 82ee f33c 7298 183d
000003f0: 2717 86ba 4137 603b beb8 d1bc 477d 313d

linear.0.bias f4 [10]
-0.010284351 0.04845322 -0.027305879 0.00054439995 -0.051655315 -0.032192435 -0.038494594 -0.026098484
-0.016220465 -0.030627668
00000000: b27f 28bc e276 463d 94b0 dfbc 10b6 0e3a
00000010: 8694 53bd 37dc 03bd 82ac 1dbd 7dcc d5bc
00000020: c8e0 84bc e0e6 fabc
