save_modelglobal_model.pth (torch, 75415 bytes, 6 tensors)

cnn1.weight f4 [16, 1, 5, 5]
00000000: 15fc ab3d 1314 4abe c4c1 43be 6ce4 18be
00000010: 3031 f6be 26ad 3c3c 07c2 763d 5e11 bfbe
00000020: cf34 5ebe 572b c7be 2c4d 523e 8209 c33e
00000030: f0ab d83e 817b a53e e306 083e 99b2 40be
00000040: 4706 c93e fed0 cd3d 3cb2 cc3e 170b bc3e
00000050: 6049 2ebe 39b2 a63d ddb1 7abe e513 08be
00000060: e5fd a13e 469e bdbd 3b70 4dbe b874 4dbe
00000070: de8d 21be 2fae a83d f10e 37be 5b5e 623e
00000080: ffd2 993e 306f 8d3d aaef 973e eed7 df3d
00000090: 96a0 bc3e 135a 203e 1c5a 7abc 19fc 843e
000000a0: c8a3 2ebe 73a1 fbbb b39b cd3a 2091 8bbe
000000b0: 8fbc 8dbe d27d ea3c 021c acbe 1196 91be
000000c0: 05b4 f4bc 284f f5bd 2022 6a3e 14d3 31bd
000000d0: 21d9 70bd c08f 2fbe 8852 8e3d d9c4 6abe
000000e0: 0ab4 b0be 479e a8be c839 ef3d 759e d63d
000000f0: 8274 bb3e d008 043e a3a9 a33e 1df4 f2bc
00000100: d608 2f3c c492 593d f335 d43e 1c17 8f3e
00000110: 6f8b 81bd 09ca 95be 1498 d0be 9a10 72be
00000120: 826c 303e 3653 e1bd 63df a7bd faad c4bd
00000130: 13cf 833e 3c5a 933e 4964 11bc 3387 d63a
00000140: 63ac 96bd 60bb ffbc b42a 20be 83c6 12be
00000150: 1754 21be a0e2 65be d0e5 f1bd f294 61be
00000160: f1c0 66be 3643 1cbe 10a4 30be 19cb 99bd
00000170: a46a 20bc d02a 44be 060f dbbd ba23 1ebe
00000180: e644 94be 08d3 83be b0a6 8a3e 5fea 583e
00000190: 2620 a8bd 78b6 743e 48bf 1fbe 41d8 913b
000001a0: c34e dabe daef 14be b656 883e 19c0 2c3e
000001b0: 7d15 44be 6f23 17bf 4a81 dfbd baf6 693e
000001c0: 904e ca3e 6821 4e3e 7b44 11bf 6493 b2be
000001d0: 8b20 85be 074e d43c cb97 2b3f b607 bd3e
000001e0: cb95 89bd 8a11 7abe aec8 93be 64c2 d33e
000001f0: ed8b d93e 45f1 a2bd 41f7 973e 578e ae3e
00000200: ca7d df3e 9757 043f 0786 be3e 4a72 cf3e
00000210: 7d30 9d3e ed8c 0e3e 9741 973e 42da 1a3e
00000220: 446f 293e 4505 023e 6ac0 223e 44ca 8a39
00000230: 96ad f5be 2fc4 b2be 3884 dfbe ee26 e3be
00000240: 3e73 d7be fca4 3ebe 162a 04bf cc59 d0be
00000250: cc5a b3be 3dd4 13be 318c 27be 4e46 5bbe
00000260: e624 5e3c 4146 713e 1a77 393e 7359 9dbd
00000270: 1d80 f9bd 46d0 b4be a1ac 0a3e dfa9 d03e
00000280: 9121 1abe cebc 9dbe b2c7 68be b481 90bc
00000290: bdd7 ee3e 388c 62be c3fd 0dbe 5fda 9dbe
000002a0: f172 88bd 12ea 333f 957d bfbe fc6d d7be
000002b0: 2eaf 86bd 1833 bfbd 33f6 063f 4801 26bb
000002c0: 9f2b 6e3e 73ac bfbd 6fcd 723d 2683 1bbe
000002d0: 58fb 62bd 0c42 443d c238 7ebe 184f fdbd
000002e0: 901b 28be 0b24 0a3e 0cac d4bd f1f6 d9be
000002f0: 3acd 3cbe d3b1 8ebe f255 aa3e 977a c33e
00000300: b35a 30be cad5 80be 87c9 d7be 852a 393e
00000310: fcbe b23e 6540 153f 395c 0d3f 60e4 303e
00000320: c032 babd 340d 503e 6152 2d3e 6034 2f3d
00000330: 1fb7 4fbd c8c2 9bbe d3ce 86bc 0558 af3e
00000340: a87e 40bd 5bb9 2fbe 4ebc 8fbe ebbd acbd
00000350: 47cd aa3e c72c 123b 5575 abbe a126 c9bd
00000360: fa3c e7bd b2ec ac3e c4d6 d63c c717 1abe
00000370: 4fa0 75be 26ab 823e 7bf4 15bd 7de8 653c
00000380: 0e5a 76be ce8c 89be b241 4cbd 20b5 193e
00000390: d7b7 813e 2301 903e 51a9 23be 2c2b 5cbe
000003a0: 609c 893d c081 6a3e a958 113e 7ccf a3be
000003b0: 193e b7be a002 843c 3079 0a3f 6654 d83d
000003c0: b6bb f9bd dede 3cbd cbb8 ca3e 08cb 9a3e
000003d0: 58a0 c7bd 86eb cbbd 47f9 eabc daf7 7c3e
000003e0: 57fc 96bd 9a35 69be ee3a 4a3d d408 263d
000003f0: 2670 47be eef6 8abe f982 74be 830d e0bd
0.0839769 -0.1973422 -0.19116884 -0.14930886 -0.48084402 0.011515891 0.060243633 -0.37317938
-0.21699832 -0.38900253 0.20537251 0.3809319 0.42318678 0.32320789 0.13283877 -0.1881813
0.39262602 0.10049628 0.39979732 0.3672721 -0.17020178 0.08139462 -0.24481912 -0.13288839
0.3163902 -0.09258704 -0.20062344 -0.20064056 -0.15776774 0.08236348 -0.17876793 0.22106306
0.3004379 0.06905973 0.29675037 0.10929857 0.36841267 0.1565936 -0.015280273 0.25973585
-0.17054665 -0.0076791584 0.0015686661 -0.2725916 -0.2768292 0.028624449 -0.33615118 -0.28434804
-0.029870996 -0.119779885 0.2286458 -0.04341419 -0.05880082 -0.1714468 0.06949335 -0.22926654
-0.3451236 -0.32933256 0.11680943 0.10479442 0.36612326 0.12893987 0.3196536 -0.029657418
0.010683259 0.053118482 0.4144741 0.2794732 -0.06325423 -0.29255703 -0.40741026 -0.23639145
0.17228892 -0.11002199 -0.081969045 -0.09603496 0.25743923 0.2877978 -0.0088740075 0.0016367197
-0.07357099 -0.031217277 -0.1564129 -0.14333539 -0.15754734 -0.22449732 -0.118114114 -0.22029474
-0.22534539 -0.15260014 -0.17250085 -0.07509441 -0.00979105 -0.19156957 -0.10696225 -0.15443316
-0.28958815 -0.25746942 0.27080297 0.21183155 -0.08209257 0.23897731 -0.15600312 0.0044508283
-0.42638215 -0.14544621 0.26628655 0.16870154 -0.19148822 -0.5903844 -0.10913332 0.22848025
0.39513063 0.20129931 -0.5674512 -0.34878075 -0.2600139 0.025916113 0.6702849 0.36919945
-0.06718024 -0.24420753 -0.28864044 0.41359246 0.42489567 -0.07956175 0.29680827 0.34092972
0.43650657 0.5169615 0.3721163 0.40516883 0.30701056 0.13920946 0.2954223 0.15122321
0.1654635 0.12697323 0.15893713 0.0002647211 -0.47983998 -0.349153 -0.43655562 -0.44365638
-0.4208011 -0.18617624 -0.5162672 -0.4069351 -0.3503021 -0.14436431 -0.16362073 -0.21413538
0.013558602 0.23561956 0.1811184 -0.07683077 -0.12182639 -0.3531515 0.13542415 0.407546
-0.15051867 -0.3080811 -0.22732428 -0.017639972 0.4664897 -0.22123802 -0.13866334 -0.30830666
-0.06662548 0.7027904 -0.374005 -0.420761 -0.065763816 -0.09335917 0.5271942 -0.0025330354
0.23258828 -0.09359064 0.059277948 -0.15186748 -0.05541548 0.04791455 -0.24826339 -0.123686016
-0.16416764 0.13490312 -0.10384378 -0.42571214 -0.18437663 -0.27870044 0.33268696 0.38179466
-0.17222099 -0.25163108 -0.4214594 0.18082626 0.34911335 0.58301383 0.55218846 0.17274618
-0.09091711 0.20317537 0.16925956 0.042774558 -0.050711747 -0.30422044 -0.016456043 0.3424684
-0.04699579 -0.17160551 -0.28073353 -0.084346615 0.3335974 0.0022304521 -0.33487955 -0.09821821
-0.11290927 0.33774334 0.026225455 -0.15048133 -0.23986934 0.255212 -0.036610108 0.01403248
-0.2405779 -0.26865238 -0.04986734 0.150105 0.2533557 0.28125867 -0.15982558 -0.21500844
0.06719279 0.22901058 0.14193977 -0.31994236 -0.35789564 0.016114533 0.5409117 0.10562973
-0.12194006 -0.04611098 0.3959411 0.30233026 -0.0974738 -0.09957032 -0.028683318 0.24703923
-0.07372349 -0.22774354 0.049372606 0.040535763 -0.19476375 -0.27141517 -0.23878087 -0.10940077

cnn1.bias f4 [16]
00000000: d4eb 55bd 7a5b ff3d 4715 37bd 6e4d 583d
00000010: e828 72bd 41e1 25bd 9e52 0e3d efe0 a13a
00000020: 5d1d c7bd 8c03 3fbe 484f 43bd 46af 1dbe
00000030: c9f2 ef3d 3d51 adbd d720 15be 940b 95be
-0.052226856 0.1246862 -0.044698026 0.052808218 -0.059121042 -0.040498022 0.03474676 0.0012350361
-0.097223975 -0.18653697 -0.04768303 -0.15398893 0.117162295 -0.084627606 -0.14563309 -0.29110396

cnn2.weight f4 [32, 16, 5, 5]
00000000: 1ca8 c63c be96 b7bd 5746 4cbd 4a32 a3bd
00000010: a7c7 debd 621c 8d3d d917 bd3c d31a 753d
00000020: bbf2 743c b6de bebc 42df 42bd f726 183d
00000030: 8c76 5c3b e490 8dbc c383 bbbb 3e8f f5ba
00000040: 1008 2438 4c70 89bd c36a c6bc 54bf 3cbd
00000050: 50cb eabd 0a0c a3bd f1e1 67bd 92bb 19be
00000060: 278a 8a3e 4060 a33d 23e9 a6bc 45f6 5f3b
00000070: d2b6 143d 5590 db3c 75bd 3c3c acd0 4b3c
00000080: 8ac5 24bd ca42 51bd 1640 583c 01d8 3fbc
00000090: 200c 2e3c cdb0 54bc 15bc 20ba cca5 3a3c
000000a0: 416c ba3d 2666 0dbc a829 103d 9ada 1dbc
000000b0: 88a3 2e3c 363e fdbc b7c1 b5bc 3ef7 2bbd
000000c0: a0dd 783d 7456 f7bd 265f 833d d296 9ebc
000000d0: a6ee 11bd ecb3 e4bc 707e e83c 1ed8 fa3c
000000e0: 77fa 9abc 3df6 95bb 0291 153d cd08 683d
000000f0: acf9 3f3c e2c5 19bc 5a57 f8bb 5fdf 3c3d
00000100: 4220 f73c 560f b53d 1dbf 37bc 2c51 363d
00000110: 9b92 c8bc d835 2cbc 9607 5cbd db2a 613c
00000120: b903 973c 2043 d03c 11a6 2ebd eb01 8d3d
00000130: ff97 a53c bb94 df3a 8eb5 d43b 6ab8 67bc
00000140: 386f 6abd 418d 51bd 45a1 9abb 0c31 13bc
00000150: e2d7 84bb d57e 26ba fee4 2d3d 564f d43b
00000160: c86d 173d d52e be3c 0dd4 323c 229f 0bbd
00000170: 0c5f 57bd ccf9 d0bc 63f0 13bd ff4d 24bd
00000180: 8d9a a1ba 51fe f8bc a283 0ebd 0075 813e
00000190: 2e22 623c c2d5 123d 9d46 d63c 76cc d1bb
000001a0: dd17 85bd c409 813d dc9c 15bc 30a1 91bc
000001b0: 1df5 1e3d 40ec ff3c 7575 f93b 5137 e7bc
000001c0: ba66 b83b eda6 6f3c d8a7 c2bc 82c5 8a3c
000001d0: c74f 223c 2895 3ebd 467e 81bd c70a f7bd
000001e0: c7d5 923c 8ce5 a4bd b222 bcbc f182 e5bd
000001f0: 62f6 6b3f 2ca5 3f3e ccdd e53d b27e 8cbd
00000200: e000 85bd b002 8bbd b5bb 8d3d f220 8fbd
00000210: d887 8abd b355 8abd ac41 14be ed76 143d
00000220: cd84 89bc 3b39 36bb 1ca6 5fbd 84b4 99bc
00000230: db5f 20bd b4de c7bc 78a5 d9ba 2bd7 d6bd
00000240: 801b 81bc db2e cdbc 8a7c 42bd b346 813c
00000250: ad1a b1bd 6c7e d9bd 1c04 be3c 157f b5bd
00000260: c99c 43bc 5052 1cbd 0734 00be 0739 853c
00000270: bfd1 4ebd fe50 0fbd af3c 7dbd 0600 8fbd
00000280: a2f0 b1b9 1810 ed3b 4a3e 86bd a8f7 6fbc
00000290: ba42 48ba f860 963c 6e3a 32bb a9bb 90bd
000002a0: fe55 ddbd 236e 22be a6df dbbc 79ff a03c
000002b0: 77a4 86bc 21e9 5cbe 4c73 043f 46a7 9d3c
000002c0: 5e76 68bd 1647 3d3d 6b5e 8c3c d6eb 8c3c
000002d0: b7e8 ba3d 1e19 89bc cdc6 5abb 0eb7 e9ba
000002e0: 4e1e 9ebb 70d1 7cbd e2d8 bf3c f186 c5bd
000002f0: 82c5 d53c 312e 80bd 652c 6bbd dbce d4bc
00000300: 2ce2 15be 022c 1ebe daf0 c8bd 084d 94bd
00000310: 469d f2bd 48b8 d8bd 46fe 11bd 6e20 d33e
00000320: 29ef 61bb 053c 063c 7eaf fdbc ce19 c63c
00000330: 3700 02bd bcd2 3ebd ce6c b63c 3acb 263d
00000340: 53ec 9b3c 87f4 46bd b405 d63c 4fcb 40bd
00000350: 782c 43bd e6a3 273d 224c 9bbc 3028 773d
00000360: d213 e1bc 4071 d13b f15a 1a3d 0890 c3bc
00000370: 3465 063d c0ae 0e3d fee1 f73c 2dbd 4fbc
00000380: 8eee fb39 9367 4bbc 9f45 f73c 6126 4ebd
00000390: 0567 75bc 0aa6 5dbd 0c95 163c b927 adbc
000003a0: 732d d63b 32c1 b8b9 41c9 1bbe a4e6 883d
000003b0: 47df 543d 026f 363c fe75 cebd 9185 c3bc
000003c0: 68c0 e23c 5ea7 613d 304f 06bd 311d 04bd
000003d0: 0374 eebc 3a56 ca3c 126b 793c 2562 cebc
000003e0: 98b2 53bd dd2d 51be 7922 b73d 9a6c 94bc
000003f0: a126 bfbc 8d3c edbc e2ee 01be 3f08 bd3c
0.024250083 -0.08964299 -0.04987177 -0.07968576 -0.108779244 0.06890179 0.02308266 0.059840035
0.01495045 -0.023299556 -0.047576196 0.037146535 0.0033639995 -0.017281003 -0.0057224943 -0.0018734706
3.9108156e-05 -0.06710872 -0.02422083 -0.046080902 -0.1146456 -0.07961281 -0.05661196 -0.15012959
0.27058527 0.079773426 -0.02037484 0.0034173888 0.036307164 0.026802221 0.011519779 0.012439888
-0.04022745 -0.051089086 0.013198873 -0.011709214 0.010623008 -0.012981606 -0.0006131542 0.011392068
0.09102679 -0.008630311 0.035195976 -0.009634638 0.010659106 -0.030913454 -0.022187097 -0.041983835
0.060758233 -0.120770365 0.064146325 -0.019359026 -0.035627984 -0.027917825 0.028380603 0.03062063
-0.01891826 -0.004576473 0.036515243 0.056649018 0.011717241 -0.009385558 -0.0075787725 0.04611146
0.030166749 0.08840816 -0.011214999 0.044511005 -0.02448397 -0.010510884 -0.053718172 0.013743128
0.018434392 0.025422633 -0.042638842 0.068851314 0.020214079 0.0017057875 0.0064913696 -0.014143089
-0.057234973 -0.0511601 -0.004718932 -0.008983862 -0.0040540555 -0.0006351297 0.042454712 0.006479184
0.03696993 0.02321569 0.010914815 -0.034087308 -0.05258088 -0.025509737 -0.036117923 -0.040113445
-0.0012329385 -0.030394705 -0.034793504 0.25284576 0.013802094 0.035848387 0.026156718 -0.0064025475
-0.06498692 0.06300691 -0.0091316365 -0.017777056 0.038807977 0.031240582 0.007612879 -0.02822462
0.0056274803 0.014627201 -0.023761675 0.016939882 0.009906716 -0.046528965 -0.06322913 -0.120626025
0.017924203 -0.08051595 -0.022965763 -0.11206616 0.92172825 0.18715352 0.11223945 -0.06860103
-0.064943075 -0.06787622 0.06920568 -0.06988706 -0.067641914 -0.06754627 -0.14478177 0.03624623
-0.016786957 -0.0027805108 -0.054601774 -0.018762834 -0.039153915 -0.024398185 -0.00166051 -0.10490259
-0.015760183 -0.025046756 -0.04748205 0.015780782 -0.08647666 -0.10619816 0.023195319 -0.088621296
-0.011939236 -0.038164437 -0.12519847 0.016262544 -0.050493 -0.03498935 -0.06182545 -0.06982426
-0.00033939356 0.0072345845 -0.065548494 -0.014646448 -0.00076393376 0.018356785 -0.0027195471 -0.07067043
-0.10807417 -0.15862326 -0.026840042 0.019653069 -0.016435845 -0.21573307 0.5173843 0.019244801
-0.05675351 0.04621037 0.017134866 0.0172023 0.09126418 -0.01673561 -0.0033382655 -0.0017831044
-0.00482539 -0.061723173 0.023418847 -0.09644879 0.026095156 -0.0625881 -0.057415385 -0.025977543
-0.14637059 -0.15446475 -0.09811564 -0.07241255 -0.11846404 -0.10582024 -0.035642885 0.4123568
-0.0034474826 0.008193021 -0.03096747 0.024182227 -0.031738486 -0.04658769 0.022268679 0.040721156
0.019033587 -0.048573043 0.026125766 -0.04706889 -0.04764983 0.04092779 -0.018957201 0.06034106
-0.027475271 0.0063916743 0.037684385 -0.02387239 0.03281136 0.034834623 0.030259129 -0.01267938
0.00048052188 -0.012414831 0.030184565 -0.05032957 -0.014978175 -0.054113425 0.009190809 -0.021137105
0.0065361797 -0.00035239157 -0.15213491 0.06684616 0.051970746 0.011134865 -0.10081099 -0.0238674
0.027679637 0.055091254 -0.032790363 -0.0322544 -0.029108053 0.02469932 0.015223281 -0.025193283
-0.051683992 -0.20427652 0.08942122 -0.018118192 -0.02333385 -0.028959537 -0.12688783 0.023075221

cnn2.bias f4 [32]
00000000: 8499 b03b 19aa 41bc fa17 1bbd a608 463c
00000010: fdee 45bd ebc9 32bc 5540 22bd af89 91bc
00000020: c839 c3bb 5c87 0bbd 501e f03a e37a a5bc
00000030: de03 4a3c 1505 41bc 40a1 f13c 52e3 383d
00000040: 06ca e2bc 637d 87bb 82c7 68bd 76f5 0f3c
00000050: 792b a5bb a0e0 103d 98bf 5dbc f93b 41bd
00000060: 4318 113c c6b1 443c 85e9 d0bc 4e3c f13c
00000070: 5850 0ebc f970 71bd c217 d7bb 153c c0bc
0.0053893942 -0.01182034 -0.037864663 0.012087023 -0.04832362 -0.010912399 -0.039612133 -0.017765848
-0.005957816 -0.034064636 0.0018319581 -0.020200199 0.012330024 -0.011780997 0.029495835 0.045138665
-0.027684223 -0.0041348203 -0.05683089 0.00878655 -0.0050405827 0.03537047 -0.013534449 -0.047176335
0.008855882 0.012005275 -0.025501976 0.0294477 -0.008686148 -0.05894563 -0.0065641114 -0.02346615

fc1.weight f4 [10, 512]
00000000: 4b40 bd3d 33bb a3bc 5084 cf3c 8604 ae3d
00000010: 3cc6 c63d 820d 1fbe fccd 8cbd c50e f3bb
00000020: 35f4 9e3d b44f 93bc b4d5 05bd 60b4 33bc
00000030: 5cf4 503d 27b0 213c 082a bd3b 9303 3ebe
00000040: 4697 6abd 9b1b a6bc 185f 233d 5528 9d3c
00000050: 5d22 9dbd f704 133d 40ac 24bd 3715 12bd
00000060: d289 c7bc 9652 00be 6650 2abe c446 0bbb
00000070: fa08 71bd 7d62 31bd d08d 303d 2507 ba3d
00000080: ce89 e53c 21d2 df3c 2a5c bf3d 2db2 173e
00000090: 6d39 6a3d f35b f1bc 9e59 8ebd 48eb 733d
000000a0: e5f9 74bc 40cc 10bd 21f4 9bbd 08d0 eabc
000000b0: 5d59 6cbd bf1a adbd b89f 42be b8fd 8ebd
000000c0: 3a61 acbc 814f 96bd aac0 43bb c8e8 1ebd
000000d0: 5819 35bd c5c9 abbd 778a 92bb 2bdf 52bd
000000e0: fddb 7b3d 0621 a8bc 8d61 5cbd 96d7 08bd
000000f0: 30e8 203d 8ff3 c9bb c143 3a3e f88c af3d
00000100: fa0f 34bd c525 123d 51be 10bd 94ae b73c
00000110: d43f 39bd e165 68bc 86ea 40bd b6d9 4d3d
00000120: 594f 85bc 520a d7bd ac8c 25bc a143 8c3d
00000130: 70bb 9abd d07b c53d 7da5 793d cdf7 a83d
00000140: f2cf babb 710d 1e3d de7e 71bc 1cce 443d
00000150: 9536 103d 5f02 a9bd 3466 06bc de92 563e
00000160: 28d2 e1bd 8121 09bd 1dc4 0dbe e336 9d3d
00000170: c47c c0bc f750 e0bd 5cd4 dbbd 5c70 c23c
00000180: 886b cf3d 0e8b fdbb 4356 a03d 0698 19bb
00000190: 299e d73d acff 233d 67c1 e9ba e6b6 d0bd
000001a0: bf5d 103e 9a63 823d c895 80bd 9e96 5b3d
000001b0: 1df0 0f3c 1a2d b2bb b715 4a3d c5ad f7bb
000001c0: de8e 3f3d d0dd 6f3d dd33 b03d fc57 91bc
000001d0: 513c 1ebd 9965 a3bd 64a1 febc f20c ea3b
000001e0: 5ee2 37be e42b 9b3c e279 6fbd 4c0e 89bc
000001f0: a0cd f7bd fb53 ec3d d883 9d3d d361 a73c
00000200: 9f4c dcbc 43e1 dbbc f8dc 6bbe 9e96 61bd
00000210: 4ad2 383e 6b34 8bbd 1111 d3bd 44f0 eebc
00000220: a02e 2c3e 364d 6e3d 9f48 62be 8466 a53d
00000230: 4925 6e3e 9b77 223e 983d 2abe 9ffd 45bd
00000240: 1c0b e03b 63d9 473d 379b 80bd d242 c6bc
00000250: 6d94 353d 44d0 923c 52d8 e4bc 2faa 8e3d
00000260: 9cda 21bd 4ab4 3f3d 7fae cc3d c4f1 603b
00000270: 32f4 39bc 4c24 73bd 48b6 fcbd b888 22bd
00000280: 73b8 613d 468c 2e3c 7505 6f3d 401a 5b3d
00000290: 3de2 c93c 9ea1 673c acda 8abc 2ca6 f2bd
000002a0: f598 f7bd 2827 2bbe e537 9dbc c55b 3dbd
000002b0: 939d ccbd 501b 79bd f391 1a3c 68a9 ef3d
000002c0: 9c90 933d 99fe 65bb 8a21 8abc 9cfe 44bd
000002d0: 5222 823d 8c7e 3abc 0250 cebd 4b67 6d3c
000002e0: bc71 243e 478c f2bd 1d2c cfbd 165c 743d
000002f0: 9b3c 913d 3f0a 80bd 8816 0eb8 9745 013c
00000300: e0c3 3ebd e3b7 543c 2ab0 f5bc 2790 3f3e
00000310: 6061 aabd afc1 e03d 2cce 90bd df11 f23c
00000320: 57ae 5dbd bb01 02be 3de0 89be 919f f0ba
00000330: 081a 543b 1915 ff3d 2bd6 b4bc 8ec9 26bd
00000340: 436e 98bc 1570 243d a999 a0bd 8cfe 46bd
00000350: eaff e93c 6c3e 27bd c156 d93b 5220 c4bd
00000360: bfa7 e7bd 25cb 9fbd c6ff 713c cf2e 14bd
00000370: 0063 0dbe 44f3 443c dcad 103e bb48 193e
00000380: 953a 453c d676 e83c 3a76 ec3d 56c0 283e
00000390: 0b9c 6cbd 732f 96bd b677 67bb cdcc 9f3d
000003a0: c007 783d e325 6fbd c8f0 bcbd 34d9 3a3c
000003b0: b509 023e de0c 343d d7d8 9abe 6a4f febd
000003c0: 9006 1a3e f9f7 143e db38 afbc f2bf d3bd
000003d0: 8fbc 963d 8cce e1bd 2496 2cbc 520b 1a3d
000003e0: 4451 e53c 881b de3b d881 923d 094a 2d3d
000003f0: 3e95 b3bc 2c48 0a3d 0d9e 8cbc 9eaf e03c
0.092407785 -0.019986724 0.025331646 0.084969565 0.09705779 -0.15532497 -0.06875226 -0.007417532
0.077614225 -0.017982341 -0.032674506 -0.010968298 0.05101429 0.009868658 0.005772833 -0.18556051
-0.05727317 -0.020276835 0.03988561 0.01918427 -0.0767257 0.035893407 -0.040203333 -0.035664763
-0.02435771 -0.12531504 -0.16632232 -0.0021251896 -0.05884645 -0.043306816 0.043103993 0.09083394
0.028019812 0.027321877 0.09343751 0.14814062 0.05718367 -0.02946279 -0.06950687 0.059550554
-0.014952158 -0.035351038 -0.07614923 -0.02866365 -0.05770241 -0.08452367 -0.1900624 -0.06981987
-0.021042455 -0.07339383 -0.0029869475 -0.038796216 -0.044213623 -0.08388094 -0.0044720727 -0.05148236
0.061489094 -0.02052356 -0.05380397 -0.033408724 0.03928393 -0.0061630677 0.18189909 0.085718095
-0.04396055 0.03568055 -0.03533775 0.022422113 -0.045226887 -0.014184446 -0.04709866 0.050256453
-0.016273187 -0.10500015 -0.01010434 0.06848837 -0.07555282 0.09642756 0.060948838 0.08250389
-0.0057010585 0.038587037 -0.01473972 0.048048124 0.035208303 -0.082524054 -0.008203078 0.20954463
-0.11026412 -0.033479217 -0.13844343 0.076764844 -0.023496993 -0.10952943 -0.10733864 0.023735218
0.10127932 -0.007737524 0.07828953 -0.002343656 0.105282135 0.04003875 -0.0017834128 -0.10191135
0.14098261 0.06366654 -0.062785685 0.053610437 0.008785275 -0.0054375054 0.049337115 -0.0075585567
0.04676711 0.058561146 0.08603642 -0.01774215 -0.03863174 -0.079783626 -0.031082816 0.0071426565
-0.17957446 0.018941827 -0.058465846 -0.01673045 -0.12099767 0.115394555 0.07691163 0.020432388
-0.026892005 -0.026840812 -0.23033512 -0.05507528 0.18048969 -0.06797107 -0.103059895 -0.029167302
0.16814661 0.058179103 -0.22098015 0.08076194 0.2325641 0.15865938 -0.16625059 -0.048337575
0.006837262 0.0487913 -0.06279605 -0.024201784 0.044331003 0.017921574 -0.02793518 0.06966054
-0.039515123 0.046802796 0.0999422 0.003432379 -0.011349725 -0.059360787 -0.12339455 -0.039681166
0.055107545 0.010653561 0.058354814 0.05349183 0.024644012 0.014137654 -0.016949974 -0.11848101
-0.12089721 -0.16714156 -0.019191692 -0.046230096 -0.099909924 -0.060817063 0.009434211 0.117022336
0.072053164 -0.003509438 -0.016861696 -0.048094377 0.06354202 -0.01138271 -0.10073854 0.014489959
0.16059011 -0.11843162 -0.10115836 0.059658132 0.07091638 -0.06251954 -3.3876422e-05 0.007890127
-0.04657352 0.012983295 -0.029991228 0.18707334 -0.08319354 0.10974442 -0.07070574 0.029549537
-0.05412134 -0.12695973 -0.26928893 -0.0018358101 0.0032364149 0.12455196 -0.02207478 -0.04071956
-0.018607264 0.040145952 -0.07841808 -0.0485826 0.028564412 -0.040831015 0.0066326563 -0.09576477
-0.11311292 -0.078024186 0.014770454 -0.036177453 -0.13807297 0.01202089 0.14128822 0.1496915
0.012037893 0.028376978 0.115459874 0.1647962 -0.057766 -0.07333269 -0.0035319156 0.078027345
0.060554266 -0.05838574 -0.09225613 0.011404324 0.12699015 0.043957584 -0.3024356 -0.12417491
0.15041566 0.14547719 -0.021389415 -0.10339345 0.073601834 -0.11025724 -0.010533843 0.037608452
0.027992852 0.0067781843 0.07153672 0.042306934 -0.02192175 0.033760235 -0.017165208 0.02742749

fc1.bias f4 [10]
00000000: c257 8dbb 46a1 843d 4c2c 23bd 67f6 fa3b
00000010: 4faa 73bd 51b9 29bd 8f5a 46bd 5190 00bd
00000020: 5594 bc3b 413f 18bd
-0.00431344 0.06476073 -0.039837167 0.007658768 -0.05948859 -0.041436497 -0.048426207 -0.03138763
0.0057549872 -0.0371697
